checkpoint_critic.pth (torch_old, 674838 bytes, 5 tensors)

fcs1.weight f4 [512, 57]
000000 68 95 38 bc f2 3b 15 3d 38 f0 a4 3b 96 d1 42 bb
       -0.01126609 0.03643412 0.005033519 -0.0029726974
000010 4f 52 ae bc 08 54 82 bc 61 1f 02 ba 6b bf 38 3d
       -0.021279482 -0.01590921 -0.0004963782 0.045104425
000020 87 0c a5 3c 30 c8 10 bd 3b fc 5f 3d b0 f3 d6 3c
       0.020147575 -0.035347164 0.054683905 0.026239246
000030 26 3f f3 3c 88 c4 fe 3c fa d4 14 bc 0c 0a 1e 3d
       0.029693197 0.031099573 -0.009083981 0.0385838
000040 e5 32 2d 3d 4f 23 ac bc 1b 9c fc 3c 5a 40 de bc
       0.042284865 -0.02101293 0.030836156 -0.027130295
000050 c4 c1 b7 bc bd cd 87 bc 6b 00 22 3d 35 bb fa bc
       -0.022431262 -0.016577596 0.03955118 -0.030606845
000060 6e aa 87 3c 37 a7 56 3c 52 04 c9 3b 73 46 31 bc
       0.01656076 0.013101391 0.006134548 -0.010820019
000070 fa 38 fc b9 01 e6 3c bc 48 e9 69 3d fd 64 2e 3b
       -0.00048107636 -0.011529447 0.05710724 0.0026610487
000080 1c c6 52 3c 47 9a 65 bb 82 db 7d bc f1 bd 70 3c
       0.012864616 -0.0035034583 -0.015494229 0.014693723
000090 f1 6d 05 bd 9c 66 57 bb 64 c7 10 3d 93 aa 66 3d
       -0.03257555 -0.0032867556 0.035346404 0.056315016
0000a0 d9 7f 1d 3b ba 3e 2d bd 80 76 09 bb 18 bf 75 bd
       0.0024032502 -0.04229615 -0.0020975173 -0.059996694
0000b0 66 f2 f6 3c 0f c2 86 3c a1 10 8c 3b 17 f5 1f 3d
       0.030144881 0.016449956 0.0042744433 0.039052095
0000c0 4a b8 7a bd cf 0d e2 bc ba 25 2b 3d 2c cf bf bc
       -0.061210908 -0.027594475 0.041784026 -0.023414217
0000d0 40 21 6b 3b 6b 87 65 3d 68 21 34 bc 60 3c 09 bd
       0.0035877973 0.056037348 -0.010994293 -0.033504844
0000e0 33 0d f5 3c 41 1f c3 ba 6e 7a 5e bc 5e 62 87 bc
       0.02991352 -0.0014886634 -0.013578994 -0.016526397
0000f0 65 d6 40 bd c4 21 3b bd 31 d1 2d bd a5 65 98 bd
       -0.047079463 -0.0456865 -0.04243583 -0.07441262
000100 5b 9e 31 bd 5c 62 9d bd f5 f8 6b bc c4 60 92 bd
       -0.04336391 -0.07684776 -0.014402618 -0.07147363
000110 5d ed e5 bc 11 5b 69 bd ec 0a bb bd 66 59 bf bb
       -0.028067285 -0.056971613 -0.091329426 -0.0058395145
000120 92 98 65 bc 88 40 1a bd 28 91 31 bd aa bf 67 bd
       -0.014013426 -0.037659198 -0.043351322 -0.05657927
000130 91 53 84 bd 4c 1d 91 bd 54 93 ef bc 88 99 18 bc
       -0.064612515 -0.07085666 -0.029245056 -0.009313948
000140 9e a2 88 bc 3c e0 ac bd 99 1a 35 bd b9 f1 2f bd
       -0.016679104 -0.08441207 -0.04421482 -0.042955134
000150 08 e9 5e bd f0 ed 64 bb a5 7e 5c bd c3 59 24 bd
       -0.054421455 -0.003493186 -0.053831715 -0.040124666
000160 17 c2 8a 3c 12 9a e4 3c 08 27 9b bc 64 93 8c bc
       0.016938252 0.027905498 -0.01893951 -0.017160125
000170 79 ab 5e bd 09 c6 69 bd 32 e4 4f bc e3 56 9b bc
       -0.054362748 -0.057073627 -0.012688683 -0.01896233
000180 0c e6 48 bd d8 bf ec bb ac 80 79 bc e0 32 dc ba
       -0.049047515 -0.007225018 -0.015228432 -0.001679983
000190 26 18 89 bc f6 b1 8d bc 13 6b 28 bc 0b 92 cd 3c
       -0.016735148 -0.017296772 -0.010279435 0.025094053
0001a0 7f 41 11 bd 01 e6 90 bc f1 f7 78 bc 4d 60 e0 3a
       -0.035462853 -0.0176878 -0.015195833 0.0017118544
0001b0 9f b6 07 3d 8a 4f 1e bd f8 59 34 bd 2a f4 ef bc
       0.033133145 -0.038650073 -0.044031113 -0.029291231
0001c0 98 98 80 3c e9 02 5e bd 1a 2d 8c bb 77 cf f4 bc
       0.015697762 -0.054201994 -0.0042778375 -0.029884083
0001d0 61 f0 db 3c 8e 45 05 bc 85 ab 42 3c d4 ac 30 3c
       0.02684802 -0.008134259 0.011881714 0.010783393
0001e0 4e 36 f3 bc c3 5b 48 bc e2 bd 70 3c 44 3e 3f 3c
       -0.02968898 -0.012228909 0.014693709 0.01167256
0001f0 cf ca 4e bc 0a d8 c3 3c c9 5a 39 bc 2b fd 2f bd
       -0.0126215955 0.023906726 -0.011313149 -0.04296605
000200 92 ba b9 3c b2 17 13 3d 45 08 22 bd 97 b3 0e 3b
       0.022671971 0.03591127 -0.039558668 0.0021774524
000210 a0 49 cb bc 2f 69 c6 bc 5a f2 4c bc b8 c8 d8 ba
       -0.02481538 -0.024220077 -0.012508953 -0.0016539311
000220 67 88 99 3c f9 70 25 bd e0 fc 9f bc 87 5b f5 3c
       0.0187418 -0.040390942 -0.01952976 0.02995087
000230 56 83 1d 3d ef 7d 19 bc fd 88 a4 3c 10 39 1b bd
       0.03845533 -0.009368404 0.020084852 -0.037896216
000240 3a 48 2a 3d 74 5b 7a bc d9 b3 30 bd 44 45 10 bc
       0.041572787 -0.015280593 -0.043140266 -0.008805577
000250 2d fe 1a bd 1a 15 0c bd fb dc 39 3d 10 52 44 bb
       -0.037840057 -0.03419981 0.04537676 -0.002995614
000260 be 65 ed 3c ff 2d 45 3b 29 a8 b4 3c 26 79 d3 bc
       0.028979179 0.003008723 0.022052841 -0.025814604
000270 32 f3 d2 3c 71 8e d3 bc 33 67 6a bc 29 f2 eb bc
       0.02575073 -0.025824757 -0.014306831 -0.028801994
000280 1d 4f ed 3c 9e 67 1b bd 66 00 b6 3c 05 73 05 bd
       0.028968388 -0.037940614 0.022216987 -0.032580394
000290 a8 c6 32 3c fa da ce 3c b0 77 45 bb 75 f4 85 3a
       0.010911621 0.0252509 -0.0030131154 0.0010219949
0002a0 e6 d8 a0 3c b4 51 7e bc c4 b4 b1 bb 64 37 54 bc
       0.019634675 -0.015522409 -0.0054231603 -0.012952659
0002b0 da 4e b9 3c 0f 65 66 3c be 3a a8 3a b5 08 21 3c
       0.022620607 0.01406218 0.0012834889 0.009828736
0002c0 d5 ee 25 3d cf c1 e3 3c b0 db 1a 3d 81 67 b4 bc
       0.04051097 0.027802376 0.037807167 -0.02202201
0002d0 83 72 34 bd fa 4c 21 3d 03 39 db bc ef 6d ea bc
       -0.04405452 0.03938005 -0.026760584 -0.028616874
0002e0 3f 21 bd bc 4a bb fd bc 5d 91 94 bc 51 4a 12 3c
       -0.023087142 -0.030973095 -0.01813572 0.008928851
0002f0 73 b4 fc bb a4 1b 19 bb b5 09 ca bb f7 1d ef bb
       -0.007711941 -0.0023362422 -0.006165708 -0.0072972733
000300 33 fe 94 bc 0a a8 23 bd 19 70 f1 3b a1 8f c4 3b
       -0.018187618 -0.039955176 0.0073680994 0.005998567
000310 02 3c 0a 3d 70 d6 3f 3c 0c bc cc 3c 2b 2b 03 bd
       0.033748634 0.011708841 0.024992011 -0.03202359
000320 ce 5e 36 bd 7a 89 c4 bc 0f 8d 02 bd a4 2e 06 bd
       -0.044524007 -0.023991335 -0.031872805 -0.032759324
000330 c5 76 85 bc 62 7d f8 3c 8b b8 06 3d ea de 06 bc
       -0.016291985 0.030333225 0.032890838 -0.008231858
000340 5d 75 24 3d 84 af 9e 3c 40 6f 1c bb 41 45 fe bc
       0.04015099 0.019370802 -0.002387002 -0.031038882
000350 b3 4e 8d 3c 40 1f f7 3b ce e0 9d bc 59 d8 1f bc
       0.01724944 0.007541567 -0.019272234 -0.009756171
000360 2e 03 b0 3c e5 f6 b2 bc e1 35 ae 3c 56 22 09 3d
       0.021485891 -0.021846244 0.021265926 0.03348001
000370 7d 31 49 bd 37 63 8c 3c 0e e8 c1 3c 30 03 74 3c
       -0.04911946 0.017137153 0.023670223 0.014893338
000380 4a 11 1f bd 14 b4 0c 3d 7f fd df bc 9f 05 e0 bc
       -0.038834848 0.034351423 -0.027342556 -0.02734643
000390 cd db 19 bd 45 46 4f bd 3f 18 8c bd 8a 18 37 bd
       -0.037563134 -0.050604124 -0.06840562 -0.044701137
0003a0 e9 fe 41 bc 3a 3e 44 bc 33 d2 84 bd 40 45 23 bd
       -0.0118405605 -0.011977727 -0.06485405 -0.039860964
0003b0 99 df 88 bd ca 85 15 3c c6 bd cc 3a f5 ee 95 3c
       -0.06683273 0.009126136 0.0015620522 0.01830242
0003c0 83 6c 5e bc 24 b2 c0 bc 86 76 94 3c 82 5b b1 bc
       -0.013575676 -0.023522444 0.018122923 -0.02165008
0003d0 96 3f 8e bc 3d 2b 07 bd 0d c6 85 bd b3 eb 25 3c
       -0.017364305 -0.03300022 -0.06531916 0.010126996
0003e0 fb 8f 47 bd 56 43 70 b9 0d 05 5a bd 4f 81 14 3b
       -0.048721295 -0.00022913268 -0.053227473 0.0022660082
0003f0 b6 fa 0c bd 0a 74 44 bd 45 bb 81 bc f8 00 8f bc
       -0.034418784 -0.047962226 -0.015836367 -0.017456517

fcs1.bias f4 [512]
000000 26 77 05 3d 82 0b f8 3c b6 e1 32 bd 1b 02 8a bd
       0.032584332 0.030278925 -0.043672286 -0.06738683
000010 ea 08 dd 3c db b7 a9 bd 97 1e 85 3d 28 9c cb bd
       0.02698179 -0.08287021 0.06499975 -0.09941894
000020 37 21 d7 bc b4 f4 e3 3d a7 5e 0e be 15 b6 02 be
       -0.026260955 0.11130658 -0.13903295 -0.12764771
000030 b6 86 ba bd ea 9b e0 bd 70 fb 03 be f6 8e c8 3d
       -0.09107725 -0.10967238 -0.12888885 0.09792893
000040 11 6a 4b 3d 4c cf 6f 3d 88 b3 1e bd ca 49 38 3d
       0.0496617 0.058547303 -0.038745433 0.044992246
000050 89 13 5f bc b9 28 83 3d 74 4c 28 bd 64 db c6 bc
       -0.013615497 0.064042516 -0.041088536 -0.024274535
000060 c8 07 97 bd 17 26 93 bd 02 ab 6f 3d bb d8 78 3d
       -0.07374531 -0.071849994 0.058512695 0.060753565
000070 28 84 d1 bd a9 a1 09 bd db 2a 81 3d a7 5f 22 3d
       -0.10230285 -0.033601437 0.06307002 0.039642002
000080 ea 4c 80 bd 65 f2 9c 3b 5e 1d 1c 3d 4a 08 6b bc
       -0.0626467 0.004789638 0.038113944 -0.014345238
000090 2c 3a 88 bd de 4e ee bc c9 7e 8e bd 70 06 6f bd
       -0.066517204 -0.029090341 -0.06957776 -0.05835575
0000a0 14 e0 e8 3d 8c d5 68 bd 70 e3 17 bd e9 e9 87 bd
       0.113708645 -0.05684428 -0.037082136 -0.06636412
0000b0 fe 3b 3d bd f2 36 e8 3d 6f fe ae bd fb 20 b3 3d
       -0.04619979 0.11338605 -0.08544623 0.08746525
0000c0 e0 08 01 3e 03 9b 9f 3d 76 bd fc bd 76 da 03 3e
       0.12601042 0.07793238 -0.12340824 0.12876305
0000d0 fb f2 06 bd c4 8f 23 3c 86 eb c7 bd 14 1d ea bd
       -0.032946568 0.009983007 -0.097617194 -0.114313275
0000e0 62 b5 18 bd 90 78 aa bd f2 ab 0e bd 55 af 1c 3d
       -0.037282355 -0.08323777 -0.03483195 0.038253147
0000f0 01 58 88 3c 87 44 aa bd 26 35 57 3b 9a 79 97 3d
       0.016643526 -0.08313852 0.0032838075 0.073962405
000100 29 40 15 be 73 98 78 3d 42 b2 0d be bd 4a 78 bd
       -0.14575256 0.060692262 -0.13837531 -0.06061815
000110 b5 77 04 3d 3a 54 57 3d 24 b8 d2 bd c0 31 b4 bd
       0.032340724 0.05257056 -0.10289028 -0.087985516
000120 4a 92 3c bd f9 07 f5 3b da de bc bd 9a b6 80 bd
       -0.04603795 0.007477757 -0.09222193 -0.062848285
000130 58 8e bc 3d 6e 0b 3c 3d d3 b5 00 be 83 a9 21 be
       0.092068374 0.045909338 -0.1256936 -0.1578732
000140 9f d0 17 3d 8e db f5 bd d7 8a 5b bd 9c 59 01 be
       0.03706419 -0.12004767 -0.053599205 -0.1263184
000150 c8 25 b3 bd 0a dd b4 bd 0f 53 0e be a6 f7 75 bd
       -0.087474406 -0.08831222 -0.13898872 -0.06005063
000160 d8 36 33 3d 32 f5 08 be 0e d1 ab 3d 8f 18 e1 bd
       0.043753475 -0.13374785 0.083894834 -0.10991012
000170 e2 5a 58 bd a7 4a c0 bd c1 b5 af 3d ae ec b3 bd
       -0.052821048 -0.09389239 0.08579589 -0.087853774
000180 a3 ca 95 3d 1f 02 74 3d 56 e5 d8 bd c8 4e fa bd
       0.073140405 0.059572335 -0.10590617 -0.122220576
000190 81 bb 5c 3d ad 36 a9 3d 41 94 b5 bd 80 62 bc 3d
       0.053889755 0.08262382 -0.08866168 0.09198475
0001a0 36 bd 71 3d c1 31 fa ba c2 49 c7 3d 2f 45 41 bd
       0.059018336 -0.0019088314 0.09730865 -0.04718512
0001b0 19 04 e2 bd fd 17 d9 3d 2c 30 d3 3d 4d 6a f0 bd
       -0.11035938 0.106002785 0.103119224 -0.11739025
0001c0 46 4a 5e bd 74 d5 49 3e 04 bf 51 bc c7 4b b3 3d
       -0.05427005 0.19710332 -0.012801889 0.08754688
0001d0 95 f9 d8 3d 1f 0d c0 bd 9b b5 fa bc f9 39 04 3d
       0.10594479 -0.09377503 -0.030604174 0.03228185
0001e0 a9 85 02 be 5f b8 b4 3d 0b c2 bb 3d b0 ac fc 3c
       -0.127463 0.088242285 0.0916787 0.030844063
0001f0 1a 1e b8 bd b8 b6 32 bd fc 08 03 3e 3e ec ac bb
       -0.089901164 -0.043631285 0.12796396 -0.0052771857
000200 a3 a1 e4 bc b6 8b 89 bd d6 ba e1 bd cd 8c e2 bd
       -0.027909106 -0.06716101 -0.11021964 -0.11062012
000210 db b9 92 3d 74 e1 ca bd c5 06 08 bd 41 84 6b bd
       0.07164355 -0.09906283 -0.03320958 -0.057499174
000220 2b 73 04 be 08 1b b3 bb 7b 10 ed bd d8 32 a3 3d
       -0.12934558 -0.005465869 -0.11575409 0.07968682
000230 5b c1 d4 3d bf 01 c6 bc c4 df bf bd 89 c5 85 3d
       0.10388442 -0.024170754 -0.09368852 0.065318175
000240 73 e1 a1 3d 63 8f cd 3c 06 6f 0a be 9b b7 ba bc
       0.07904329 0.025092786 -0.13518915 -0.022792628
000250 2f c5 20 3d e2 c5 58 bd ff 0d 30 3d 57 92 93 bb
       0.03925055 -0.05292309 0.042982098 -0.004503529
000260 51 91 62 3d 01 3a b0 3d 05 42 49 3d f9 69 40 3d
       0.055314366 0.08604813 0.049135227 0.046976063
000270 ce ae c6 3d 1d f6 e8 3c a3 01 e5 bd 46 1e 48 bd
       0.0970131 0.028437668 -0.11181953 -0.048856996
000280 ce 53 69 bd 99 88 d8 bd 74 33 a9 bd 72 d5 cb bd
       -0.056964688 -0.10572929 -0.08261767 -0.09952821
000290 30 46 fc bc bb eb e0 bd dc de cd bd 18 65 b5 3d
       -0.030795187 -0.10982462 -0.10052273 0.08857173
0002a0 59 58 11 bd 6e 31 46 3d a0 69 b7 3d 74 7b de bc
       -0.035484646 0.048386984 0.08955693 -0.027158476
0002b0 54 27 dd 3d 99 89 75 bd 44 27 ee bd 1c c1 96 3d
       0.10798517 -0.059945676 -0.11628583 0.073610514
0002c0 ef a5 c0 bd 5d 43 ca bd fc 99 64 bc 47 1d 9f bc
       -0.09406649 -0.0987613 -0.013952728 -0.01942314
0002d0 07 17 0b 3e b5 a8 ef bd d5 e5 bf 3d 06 ab 36 bd
       0.13583003 -0.117021 0.09370009 -0.044596694
0002e0 ed a0 ca bd 02 e8 0a bd 8f 2f a1 bd fb ab 6d bd
       -0.098939754 -0.033912666 -0.07870399 -0.05802534
0002f0 89 71 a2 bb 26 d9 ea 3d 22 48 bd 3d b3 68 fc bd
       -0.004957382 0.11467199 0.09242274 -0.12324657
000300 59 3c cf 3c a7 0e a2 bd ce f6 da 3d 09 02 ad bc
       0.02529733 -0.07912951 0.106916055 -0.021119135
000310 87 97 c0 3d 98 63 a9 bd c2 4b fb bd 00 94 4c 3c
       0.094039015 -0.08270949 -0.12270309 0.012486458
000320 2e 02 f6 bc 95 cd eb 3d 15 18 c4 3d dd 69 b8 3d
       -0.030030336 0.11513821 0.09574906 0.09004567
000330 08 93 85 3d 4e 55 f8 bd 8f dc 91 3d 9f e2 b3 b9
       0.065221846 -0.121256456 0.07122146 -0.00034310386
000340 26 f0 2b bd c5 7c 22 bd f8 b5 38 3e d7 73 21 bd
       -0.04197707 -0.03966977 0.18038166 -0.039417114
000350 79 8c 94 bc f6 0d 91 3d d6 69 d7 bc bc 5b b2 bd
       -0.018133389 0.07082741 -0.026295584 -0.08708903
000360 5a 53 b1 bb 0f c0 69 bc 29 01 d5 bd d6 15 f9 3c
       -0.0054115476 -0.014266982 -0.10400612 0.03040592
000370 5c c6 94 bd 23 65 8b 3d 37 83 0d 3c a5 19 83 bd
       -0.072643965 0.068064 0.008637241 -0.06401376
000380 c2 3c a0 3c 86 16 6c 3d 47 15 4b 3d c9 53 fd 3d
       0.019560222 0.057638668 0.04958084 0.123694964
000390 d2 db aa bd fa f1 d6 3d 94 35 e4 bd d9 a0 d7 bd
       -0.08342709 0.10495372 -0.11143032 -0.10528726
0003a0 56 38 33 3b 92 96 cf 3d e9 8b 2c be 5e e2 53 b7
       0.0027346811 0.10136141 -0.16850246 -1.2629285e-05
0003b0 fe b0 6b 3d 71 5f 8b bc 42 f2 b2 3d 19 ad 52 3d
       0.05754184 -0.017013283 0.08737613 0.05143461
0003c0 d1 85 9f bd e2 0e da 3d a7 de 24 be 0c ed 67 3d
       -0.07789195 0.1064737 -0.1610056 0.05662255
0003d0 0b 48 ff 3d bd 05 1b 3d 88 24 86 3d 10 95 0f be
       0.12464913 0.03784727 0.065499365 -0.14021707
0003e0 8d 79 5b 3d 5f 2e 02 3e a8 c9 e2 3d dd 28 22 3d
       0.053582717 0.12713002 0.11073619 0.03958975
0003f0 41 71 5e 3d 3c 37 cf bd 7b 67 0e be 09 29 12 be
       0.054307226 -0.10117957 -0.13906662 -0.14273466

fc2.weight f4 [256, 540]
000000 f0 b3 8e bd 29 25 65 bd ba db 81 3b 97 1a c1 bd
       -0.06967914 -0.05594364 0.003962961 -0.094289
000010 07 1b 51 3c ee d6 ae bc c4 fd 01 bb 4a ef b9 bd
       0.0127627915 -0.02134272 -0.0019835094 -0.09078844
000020 a4 55 9b 3c d2 29 5b bd 3a 5f 0d 3d 57 a6 a4 bc
       0.018961735 -0.05350668 0.034514643 -0.020098848
000030 f9 f6 2b 3d ee 7c 1f 3c 96 b0 cb 3c c8 e8 5e bd
       0.04198358 0.009734375 0.024864476 -0.054421216
000040 6e 38 8b ba 2a d1 49 bd 63 cf 0f 3d ed c4 1e bd
       -0.0010621676 -0.04927174 0.03510989 -0.03876202
000050 6f 18 28 bc 3e ce 10 bd 25 1f 03 3d b0 46 ae 3c
       -0.010259732 -0.035352938 0.032012124 0.02127394
000060 96 3a d2 3c a6 2a 25 b9 39 9c 0e 3d 10 35 bf bd
       0.025662702 -0.00015751514 0.034816954 -0.09336293
000070 6d 17 a6 3b e5 df 01 3d f5 68 8b 3d 26 f2 b0 3c
       0.0050687105 0.031707663 0.06807128 0.02159984
000080 2f 9d ae 3c e2 42 ea bb f0 87 32 3d 31 88 46 3c
       0.021315185 -0.0071490863 0.04358667 0.0121174315
000090 50 70 41 3c d2 ff 82 3d 6c e4 00 3d e0 74 2e 3d
       0.011806563 0.0639645 0.03146784 0.04259193
0000a0 43 76 42 bd 9c 69 8a 3d bb c7 10 bd b2 b5 95 3d
       -0.047476064 0.06758425 -0.035346728 0.07310046
0000b0 e5 5b bb bc 74 33 5a 3d da 80 d6 3c 6c dd 97 3d
       -0.022870967 0.053271726 0.026184488 0.0741528
0000c0 b9 6b bd bc 94 65 2b bd 74 66 26 3d f4 63 e9 bc
       -0.023122655 -0.04184492 0.04062505 -0.028490044
0000d0 4b de b3 3c f8 fa f0 3c ff 9f 41 3d ee 78 5b 3c
       0.021956583 0.029416546 0.047271725 0.013395531
0000e0 a2 40 84 bc a6 2d 08 3c 5e 38 3a 3d 09 2c 80 3d
       -0.0161441 0.008311665 0.045463912 0.06258399
0000f0 7c 80 a6 bd 3d 92 2e 3d 9c af d7 bb 51 c2 76 3c
       -0.08129975 0.042619932 -0.0065822136 0.015060977
000100 ba fa 5a 3c e5 b5 20 3d 52 c3 82 3c 0d a9 98 bd
       0.013365442 0.03923597 0.015962277 -0.07454119
000110 10 1e 12 3c da 7e 1f bd 67 c9 3c 3d 5c d9 61 bd
       0.0089183 -0.038939334 0.04609051 -0.05513893
000120 3e 10 49 3d c5 2f 07 3d 84 54 14 3d 32 a3 ac 3d
       0.049087755 0.03300454 0.036213413 0.084295645
000130 9c 4e 8c ba 92 77 ee 3c b8 80 fe bc 88 12 23 3d
       -0.001070458 0.02910975 -0.031067237 0.039812595
000140 57 58 0e bd 80 fe f5 bc 23 b1 a5 bd 47 ac 7c bd
       -0.034752216 -0.030028582 -0.08090427 -0.061687734
000150 82 c6 a4 bb 5e d3 07 3d 82 00 9c 3c c5 f3 7e 3c
       -0.005028547 0.03316056 0.01904321 0.015561049
000160 c1 40 e9 bb 6d 98 2e bd 63 ac 5c bd 79 5a 38 3d
       -0.007118315 -0.042625833 -0.05387534 0.045008156
000170 fe 96 fb bc 1a 67 5b bd 24 73 0b bd d2 0d a1 3d
       -0.030711647 -0.053565122 -0.034045354 0.07863964
000180 bd 4e 62 3c 3b 98 91 bd 39 af 80 3d 94 95 45 3d
       0.013812718 -0.07109114 0.06283421 0.048238352
000190 20 7f 84 3d 39 29 1a bc 8f 71 60 bc 6b e8 c9 bc
       0.0646956 -0.009409242 -0.0136989495 -0.024646958
0001a0 7f f2 06 bd 9c 4e 9b bd 0c db 2d bd 87 c3 f7 bc
       -0.032946106 -0.07583353 -0.042445228 -0.030244602
0001b0 57 86 b7 3d fc ca 17 3d ba d1 38 3d 88 90 94 bc
       0.0896117 0.037058815 0.045121886 -0.018135324
0001c0 07 44 c7 3b ab bd e4 bd 0a 87 8b bd 6f e0 c5 bb
       0.0060811075 -0.11168989 -0.06812866 -0.0060387175
0001d0 4b 12 03 3d cb 9f 17 3d 7b 27 22 3d 96 d0 6f 3d
       0.031999867 0.037017625 0.039588433 0.058548532
0001e0 15 d3 32 bd fc 19 8a 3d 73 05 04 3c a0 a6 2f 3d
       -0.043658335 0.067432374 0.00805794 0.042883515
0001f0 b8 2c 9c 3c 32 36 61 3d f6 4c 14 3d e9 13 36 3c
       0.019064292 0.054983325 0.03620621 0.011113145
000200 c3 54 38 3c 71 d1 42 3d c8 44 3b 3d 01 75 6c 3d
       0.0112506775 0.04756302 0.04571989 0.05772877
000210 ae 30 fa 3c f6 5d 6f 3d 4c 12 12 bd 4b 28 3e 3c
       0.03054079 0.058439218 -0.03566198 0.011606286
000220 65 41 8a bc 02 1c 89 3b d4 72 b3 3c 5a e3 49 bd
       -0.016876886 0.004184247 0.02190534 -0.049289085
000230 12 18 c9 3b 6b 93 e5 3c e0 2f 30 bd 0b 5c 6c bd
       0.0061369026 0.028024396 -0.043014407 -0.057704967
000240 59 28 63 bd 7d d2 8e 3c 19 51 84 3c 63 d2 6a bc
       -0.0554584 0.017434353 0.016151952 -0.014332387
000250 72 bb 70 3d 2c 08 1e 3d 8e 16 75 bd 01 60 f6 bc
       0.05877251 0.038582012 -0.059835963 -0.030075075
000260 45 78 11 3d c4 0f 07 bd 56 f7 80 bd 3c de 08 bd
       0.03551509 -0.03297402 -0.062971756 -0.033415064
000270 09 15 3f 3d 3a f9 53 bd ab 21 ba bc ed 44 b0 bc
       0.04665092 -0.051751353 -0.022721132 -0.021517241
000280 e7 e0 95 bd 33 ac 0d bd 0e e0 76 3d 94 90 2a bd
       -0.07318287 -0.03458805 0.06027227 -0.041641787
000290 42 2a f6 3c e5 15 bb bc dd ba 58 3d 3d 50 69 bd
       0.030049447 -0.022837589 0.05291258 -0.056961287
0002a0 1a f6 fe 3c 55 85 4d bb 36 47 2a bd 5c 22 81 3c
       0.03112321 -0.003135999 -0.04157182 0.015763454
0002b0 e7 3e 80 bd ab a6 5b 3d 0c e1 26 bd d5 73 3f 3d
       -0.06261998 0.053625744 -0.040741965 0.046741325
0002c0 02 57 d3 bc 93 bf 43 3d b8 30 d2 3c 9a f1 12 bd
       -0.025798324 0.04779012 0.025657997 -0.03587494
0002d0 d5 80 b7 bb f0 7f 84 bd c7 89 13 bd 27 1e a1 bc
       -0.005600075 -0.06469715 -0.036020067 -0.019667698
0002e0 6a c8 5d bd 91 6f 4d bc 17 2e 3e bc da d5 df 3b
       -0.054146208 -0.012538807 -0.011607668 0.006830913
0002f0 3a 4e 07 3d 7d 96 6b 3d 9c f4 9a bd 2b 4b 7d 3d
       0.033033587 0.057516564 -0.07566187 0.061839264
000300 28 14 7f bd a4 4f 06 3b ac 2b 4f bd 2a 7c 34 3d
       -0.062275082 0.0020494247 -0.050578758 0.044063725
000310 09 cb 71 3d 19 30 3e 3d 47 36 04 bc f4 6e 8c bd
       0.05903152 0.04643259 -0.008069581 -0.068571
000320 12 85 14 bd c0 54 be bc 3c 05 89 bc ce dd fc 3c
       -0.03625972 -0.023233771 -0.016726129 0.030867483
000330 b6 d5 99 bd e5 81 42 bd a7 f4 5e 3d b4 ce 20 3c
       -0.07511465 -0.04748716 0.054432537 0.009814907
000340 11 90 48 3d 6e 94 9a 3c 37 62 02 3d 95 5d 57 3d
       0.048965517 0.018869605 0.031831946 0.05257948
000350 c2 fe a3 3d a3 45 e8 bc 7f 1c 1f 3c dc 7a cc 3c
       0.080075756 -0.028353518 0.009711384 0.024960928
000360 81 cd 2b 3d 6f ea b2 bc ab 94 49 bd 95 ca 09 bd
       0.04194403 -0.021840302 -0.049214046 -0.033640463
000370 e9 1f 6a 3b 19 6c a7 bc 43 d2 98 3c 64 3a b7 bc
       0.0035724586 -0.020437287 0.018654948 -0.02236671
000380 e4 5e d2 3d 00 38 70 3c 0b bf 8c 3d 5b db 29 3d
       0.10272005 0.014661789 0.06872376 0.04146896
000390 ce d2 03 3d 79 af 9b 3c 43 3c b3 bc 99 4d 5f bd
       0.03218346 0.01900457 -0.021879321 -0.054517362
0003a0 79 36 4f 3d 4a 9d 96 3b c2 0c da 3c 00 a4 b7 3c
       0.05058906 0.004596387 0.026617412 0.022417068
0003b0 46 76 b6 3a 11 a7 80 3d ec 63 05 3d 28 f9 a3 bc
       0.0013920746 0.062818654 0.032565996 -0.020016268
0003c0 84 56 1f bd 09 f0 ed bc c5 d2 85 bc 94 1a 26 3c
       -0.038900867 -0.029045122 -0.016335854 0.010138173
0003d0 35 6e 7b bd 8e ea 7a bc 0c 00 85 3d a0 87 b2 3d
       -0.0613844 -0.015314711 0.064941496 0.08717275
0003e0 38 83 27 bd c7 15 70 3d e7 d2 0c bd 21 9d 7a bb
       -0.040896624 0.05861452 -0.03438082 -0.0038240629
0003f0 7d bd 69 3d 32 68 d0 3b 1d 8a 59 3c ce 4f dc bc
       0.057065476 0.0063600773 0.013277558 -0.026893523

fc2.bias f4 [256]
000000 5d b8 25 bc 62 35 a2 bd dd 8f 44 bd 04 83 81 3c
       -0.010114756 -0.07920338 -0.04798876 0.015809543
000010 c6 c1 84 3d d9 67 0a 3e e6 42 44 bd a1 f9 c2 bd
       0.06482272 0.13516177 -0.04791536 -0.09520269
000020 55 ce 77 3d 99 e1 b9 bb c1 74 05 be 49 ee d2 3d
       0.060499508 -0.0056726453 -0.1303282 0.102993555
000030 e5 86 5c bd 6f ce df bd 8c 62 4d bd 0b 21 89 bd
       -0.053839583 -0.10928046 -0.05014281 -0.066957556
000040 8e 1a f2 bc 65 20 02 3b 2f bb f1 bd 4f 31 ee 3d
       -0.029553678 0.0019855734 -0.118032806 0.116304986
000050 37 68 bb 3d 7e 02 bc bc ad 0c f9 bd 78 30 7d bd
       0.09150737 -0.022950407 -0.12160621 -0.0618138
000060 54 a8 85 3d b8 dc 12 3e 21 78 ab bc 34 b5 bc 3d
       0.06526247 0.1434201 -0.020931305 0.09214249
000070 05 85 75 3d c9 83 9d bc a7 e2 12 3e 17 46 f8 3d
       0.05994131 -0.01922788 0.14344274 0.121227436
000080 04 c7 e3 3d 00 b0 0c 3d aa 17 3a 3d c1 63 37 bc
       0.111219436 0.034347534 0.045432724 -0.011193217
000090 6e 39 68 bc 00 c2 e0 bb dd 7e 0f 3e 08 4b 9f 3d
       -0.014173849 -0.006859064 0.14013238 0.07777983
0000a0 31 35 97 bc e0 41 a3 bc 6d 48 9d bd de 56 2a 3d
       -0.01845798 -0.019928873 -0.0767983 0.04158675
0000b0 8a 49 bd bd 0a c2 27 bd 41 67 e4 bd 09 56 89 bb
       -0.09242542 -0.040956534 -0.111525066 -0.0041911644
0000c0 19 b6 c4 bc 31 16 40 bd c0 0e e3 bd 1a 1f 1a 3d
       -0.024012612 -0.046896163 -0.11086798 0.037627317
0000d0 64 fc 06 be 97 86 94 bd 1a 2d 7f bd 6c c9 a4 3d
       -0.13182217 -0.072522335 -0.06229887 0.08046231
0000e0 d1 9e 48 bd 5a 17 df bd bd c6 45 3d ab f7 73 bd
       -0.048979584 -0.10893126 0.048285235 -0.059562366
0000f0 2e c6 1d bd b9 cc 87 bd 1c a2 80 3c 08 8d 81 bd
       -0.038519077 -0.066308446 0.0157023 -0.06325728
000100 64 4b ac 3c a0 cd cb bd 4c 80 9c 3d d8 80 0d bd
       0.021032043 -0.09951329 0.07641658 -0.034546703
000110 24 70 d5 bb af 84 19 3d 21 44 04 3c 39 66 50 3b
       -0.0065136123 0.037480053 0.008072884 0.003179921
000120 11 81 0d 3e 1f 0d 81 3d 1b 0b 76 bd 9d 7a 7f bd
       0.13818766 0.06301331 -0.060069185 -0.062372793
000130 b1 49 eb bd 5b 02 e0 bb ba 6a 20 3d 71 1d 68 bd
       -0.11488665 -0.0068362183 0.039164282 -0.056668703
000140 d2 d0 9f bd 29 0a 8f 3d 4e fb 94 3d da 72 77 3d
       -0.07803501 0.0698436 0.07274495 0.060412265
000150 19 4e 09 be 74 43 76 bd 52 17 a2 bd 58 08 13 bd
       -0.13408698 -0.060122922 -0.07914604 -0.03589663
000160 de 88 23 3d ad 7d 0e 3e 3f 35 f9 3d cc 1b 81 bc
       0.03992545 0.13915129 0.12168359 -0.015760325
000170 84 a2 bd bd c4 40 a3 bd 46 d7 62 bd 4a 54 2c bd
       -0.09259513 -0.079713374 -0.055381082 -0.04207257
000180 e4 73 33 ba c1 bf 31 bd 75 f5 cf bc af 0e dd 3d
       -0.0006845577 -0.04339576 -0.025385598 0.10793816
000190 75 0b 4a bb 8c de 7f bd e1 2e ce bc a6 b4 3d 3d
       -0.0030829583 -0.062468097 -0.025168838 0.046314858
0001a0 dd 2b 96 3d cf 34 ad 3b f0 e2 69 bd f1 56 06 be
       0.07332585 0.0052858363 -0.05710119 -0.13119103
0001b0 9c 1f ca 3d c9 e5 cd bd b8 ea 36 bd cd 6b 4d bd
       0.0986931 -0.10053594 -0.04465744 -0.050151635
0001c0 f8 19 c6 3c e7 59 3e bc fe f4 a5 bd ee d3 d8 3d
       0.024182305 -0.011618114 -0.08103369 0.105872974
0001d0 18 e0 23 bd 9d e3 1c 3d 39 56 a6 bd 30 9f eb bd
       -0.040008634 0.038303006 -0.081219144 -0.11504972
0001e0 63 3f 82 3d 70 41 2a 3d 0d a6 b9 bd b4 06 15 3a
       0.06359746 0.041566312 -0.09064875 0.0005684898
0001f0 0d fd 5c bc ed 2e 01 be 0b 1e c3 3d 6c 61 b8 bd
       -0.013488066 -0.12615557 0.095272146 -0.09002957
000200 b7 96 78 3d 4c fc 4c 3c ac 65 1d 3e 22 06 3f bd
       0.060690608 0.012511324 0.15370816 -0.046636708
000210 68 0c 31 3b 0b b5 f3 3d 56 25 29 bd 0c cf 3a 3d
       0.0027015451 0.118997656 -0.041295372 0.04560761
000220 cd 5a b8 3d 2e eb 03 3d b8 37 df 3d fd 32 e9 bd
       0.09001694 0.032206707 0.108992994 -0.11386678
000230 d2 5e 03 3d ee e1 bd bd 10 88 cf 3c 9b 2c cc bb
       0.03207285 -0.09271608 0.025333434 -0.0062309033
000240 07 f9 aa 3d 72 ad c7 bd 1c 25 6b bd 1a 44 f1 bd
       0.083482794 -0.09749879 -0.057408437 -0.117805675
000250 70 b1 c8 3d 5e 1f 49 3c 57 a6 97 3d 11 cf 40 bd
       0.097994685 0.012275545 0.07404774 -0.047072474
000260 95 0a 11 3d 47 96 e9 bc ae 09 68 bd cc 4c a0 bd
       0.035410482 -0.02851404 -0.056649856 -0.07827148
000270 f2 68 06 bd c5 fe b4 bd 95 65 cd bc 06 ad 3e bd
       -0.032814927 -0.08837656 -0.025072852 -0.046551727
000280 d6 6a 84 bd a7 ac 38 bd fb 98 c4 3d b9 a1 1b 3c
       -0.0646569 -0.04508653 0.09599491 0.009499007
000290 e9 b2 24 bc 80 9f bb bd 2f 4a de 3d 1b d2 0a 3e
       -0.010052421 -0.091612816 0.10853993 0.13556711
0002a0 a4 b1 84 bd eb 5a 6e 3d 0d c5 b4 bd fe 33 a4 bd
       -0.06479195 0.058192175 -0.08826647 -0.08017729
0002b0 4f f6 96 3c 7b 14 9d 3c 87 fe 05 bd 86 8f 95 bc
       0.018427996 0.019174805 -0.03271344 -0.018256914
0002c0 f3 55 98 3d 1c 57 64 bd b0 f6 a1 bd 80 b8 23 3c
       0.074382685 -0.055747136 -0.0790838 0.009992719
0002d0 24 e1 71 3c 82 83 99 3d 0e 8b b3 3d 89 9f db bd
       0.01476315 0.07495786 0.08766757 -0.10723788
0002e0 ad ad 0b 3c 24 73 cd 3b 70 dd 10 3e eb 6c 9f bc
       0.008525294 0.0062698293 0.14146972 -0.019461116
0002f0 0f 8f d7 bd be 8a dc bd f6 2e b0 3d 12 f0 26 3d
       -0.10525333 -0.107686505 0.08602707 0.040756293
000300 68 d2 b2 3d b7 ce 14 bc 63 2b 24 bc 4a 62 09 3e
       0.08731538 -0.009082488 -0.01002011 0.134164
000310 2b 1e 60 3d ff 51 32 3d 91 7a 70 bd b4 a0 a4 bd
       0.05471627 0.04353523 -0.05871064 -0.08038464
000320 eb 6d 01 3e 5a a7 d6 3b 40 d9 a4 3c 9e 61 a4 3d
       0.12639587 0.0065507116 0.020123124 0.080264315
000330 58 d4 67 39 f4 63 81 3d 31 a9 df 3d d3 ef 3c bd
       0.00022108981 0.06317893 0.109209426 -0.04612715
000340 4b 0d 1d 3d ad 54 09 3d bf 20 90 3b f0 a5 4c bc
       0.038342755 0.03352802 0.004398435 -0.012490734
000350 d7 b3 52 bd 61 66 54 bd 42 69 70 3d eb 25 07 bd
       -0.05144104 -0.05185545 0.05869413 -0.032995146
000360 c3 13 d6 3d 25 b2 9d bc 45 0f c4 bc 74 ce 9a 3c
       0.10452988 -0.019249985 -0.023933062 0.018897273
000370 d9 c1 e5 bd 12 9e 16 bd 06 bf 61 3c 5a 05 d6 bd
       -0.11218614 -0.03677184 0.013778454 -0.104502395
000380 1f 45 4c 3d db b8 94 bd 00 50 0a bd 38 ba e3 3d
       0.049870607 -0.07261821 -0.0337677 0.11119503
000390 a8 e1 ad bb b5 5e 88 bd 29 89 6c bc 4a 8a 5e 3d
       -0.0053064413 -0.06658689 -0.014436998 0.0543311
0003a0 e7 19 4c bd d4 c8 e4 bd eb b6 02 be 53 c3 87 3d
       -0.04982939 -0.111711174 -0.1276509 0.06629052
0003b0 90 b3 77 bd 3a 0b d4 3d f0 ed 6b bd a7 ff 7a 3d
       -0.06047398 0.10353704 -0.05759996 0.061278965
0003c0 85 2d 85 bc 53 f7 1a 3d 82 b8 23 bd 68 ca a2 3d
       -0.016257057 0.037833523 -0.039970882 0.07948762
0003d0 3f 2d f9 bc 5f 77 a7 bc b1 21 6a bd 76 5b 08 3e
       -0.030417083 -0.020442663 -0.057161037 0.1331614
0003e0 1d cd da bc 5b 96 99 bd 52 50 d5 3c 18 81 d1 bc
       -0.026709134 -0.07499381 0.026039276 -0.025574252
0003f0 8f ec c0 bd 9b d0 38 3b 2e d6 97 3c ff e0 a2 bd
       -0.0942012 0.002820051 0.018534746 -0.07953071

fc3.weight f4 [1, 256]
000000 6a 19 30 3d e3 f9 48 3d 79 79 b5 3b 05 40 0f bb
       0.042992987 0.049066436 0.0055381623 -0.0021858227
000010 c3 65 c9 ba 2b 32 4e bd b3 36 bc 3c 33 75 3c 3d
       -0.001536541 -0.050340813 0.022975301 0.046010207
000020 67 6c 2f bc 5e f3 19 39 a3 ef 1b 3d ed 4d a7 bc
       -0.0107069975 0.00014681878 0.038070332 -0.0204229
000030 25 7c b8 bc 2e 1f 61 3d c6 dc 45 3c 40 79 4b 3d
       -0.022520134 0.054961376 0.012076562 0.04967618
000040 a0 61 11 bc 49 33 53 3b 2f a7 40 3d e3 cd 4f bd
       -0.008873373 0.0032226613 0.04703444 -0.05073346
000050 17 dc 39 bd 56 49 d3 ba 36 05 7c 3d 9e e5 0c 3d
       -0.04537591 -0.0016119878 0.061528407 0.034398668
000060 0a 80 67 bd 25 5d 60 bd 55 dd 86 ba 4f ef 1f bd
       -0.056518592 -0.05477633 -0.0010289351 -0.03904658
000070 16 bb b4 3a c4 1e 19 3a 16 02 53 bd 29 eb 35 bd
       0.0013788666 0.0005841071 -0.05151566 -0.04441372
000080 52 88 02 bd 0b 2f 76 3b 78 66 1f bb 9d 40 46 3b
       -0.031868286 0.003756466 -0.002432255 0.0030250915
000090 50 3b 28 3c c5 17 f3 3c 60 ee 38 bd 52 63 17 bd
       0.010268047 0.02967442 -0.045149207 -0.036959954
0000a0 79 6d 0b 3a 41 50 dc 3c 18 f3 25 3d 6c f4 c7 bb
       0.0005318742 0.026893737 0.040515035 -0.0061021354
0000b0 71 14 24 3d 76 46 bd bc 60 ee d1 3c 31 27 66 3c
       0.040058557 -0.023104887 0.025626361 0.01404743
0000c0 17 e8 5a ba c0 77 de 3c 3f 5a ae 3c 74 2c 9b bc
       -0.0008350624 0.02715671 0.021283267 -0.018942095
0000d0 18 91 73 3d 4e f6 c1 3b 2c 71 2d 3d 37 04 ca ba
       0.059464544 0.0059192544 0.042344257 -0.0015412633
0000e0 d3 8a 81 bb 0a da ba 3c b6 3f dd bc 50 ec cd 3c
       -0.0039533167 0.022809047 -0.027007919 0.025137097
0000f0 6e db 36 3b 64 b3 0a 3b d0 f3 75 bb f5 76 4c 3d
       0.0027901786 0.0021164054 -0.0037529357 0.049918134
000100 02 96 49 ba f7 40 4f 3d 33 28 24 bb 7d 97 b0 3b
       -0.00076898944 0.050599065 -0.0025048375 0.0053891526
000110 f3 5c ee 3a 9c 2a b0 bc d8 49 9d bc 02 6f 37 3b
       0.001818566 -0.021504693 -0.01920025 0.002798975
000120 a4 e8 a7 bd c1 e7 9b bc 50 d7 76 3c b0 c6 00 3a
       -0.081986696 -0.019031407 0.015065983 0.0004912419
000130 2a a7 6f 3d 10 48 64 3a ce a4 91 bb 28 34 0a 3d
       0.05850903 0.0008708248 -0.004444695 0.033741146
000140 4b 0d 1c 3d b1 13 00 bd 95 ed fd bc 78 70 46 bb
       0.038098615 -0.03126878 -0.030997077 -0.003027944
000150 30 29 3e 3d 63 7d 82 bc 6f 35 85 3d 19 ec 9f 39
       0.046426 -0.01592893 0.06504332 0.0003050275
000160 e5 c4 b0 3a 06 3b 31 bd cd 9d 46 bd f9 42 c4 bb
       0.0013486414 -0.04326918 -0.048490334 -0.005989429
000170 02 70 56 3d b3 09 41 3d 12 b2 b5 bb c3 d1 48 3c
       0.052352913 0.04712839 -0.0055449093 0.012257042
000180 b0 bb ca bb 3b a7 6c 3b 62 f4 09 ba ef 91 2a bd
       -0.006186925 0.003611042 -0.0005262551 -0.04164308
000190 e9 0d 7d 3a ac 83 4f 3d 3f 99 70 3c 9a e9 77 bc
       0.0009653257 0.05066268 0.014684974 -0.015131379
0001a0 5e 28 6a bd 11 77 2b ba 46 ef dc b8 78 5a 77 3d
       -0.057167403 -0.00065408746 -0.000105349856 0.060389012
0001b0 e5 4e d7 bc 78 d9 0e 3d e7 de 8d bb f4 53 93 bb
       -0.026282737 0.034875363 -0.0043295505 -0.004496092
0001c0 14 9d 2f 3b d8 0f 8e bb fd dd 81 3d e4 07 48 bd
       0.0026796507 -0.004335385 0.06341169 -0.04883565
0001d0 99 b2 15 3c 65 af 08 3b 4f cf 8f 3c d9 95 55 3d
       0.009136819 0.0020856496 0.017554907 0.05214486
0001e0 b2 83 2f bd 42 81 66 3a 83 25 36 3d c7 72 b2 3b
       -0.042850204 0.00087930646 0.044469368 0.0054458114
0001f0 cd d1 90 ba fd 48 50 3d 06 e8 2e bd ac 83 56 3d
       -0.0011048854 0.050850857 -0.042701744 0.052371666
000200 dc 0c 97 b9 f3 78 08 3b c3 a2 a6 bd e1 dc 02 3d
       -0.00028810545 0.0020824044 -0.08136513 0.031948928
000210 48 4f da ba 3f 2b 06 bd e5 1b 38 bc 67 ac fd bc
       -0.0016655708 -0.032756086 -0.011237119 -0.030965997
000220 18 1a 76 bd f2 b8 03 bc d0 bc 8c bc d8 bb dc 3c
       -0.06008348 -0.0080397 -0.017179877 0.02694504
000230 c0 d7 15 ba d9 ab ba 3c a7 70 32 bb 1e c5 9e 39
       -0.0005716048 0.022787021 -0.002722779 0.00030282972
000240 b7 3f 6a bb 55 26 ed 3c ff c4 aa 3c 8d 88 6b 3d
       -0.0035743543 0.028948942 0.020845888 0.05750327
000250 0b c6 f5 bc 20 1e ed bb ae 24 a9 bc c3 e4 45 bb
       -0.03000166 -0.007236257 -0.020647373 -0.0030196167
000260 99 fe 0a bb e9 d7 07 3d a1 c3 d1 3c 85 0d 28 3d
       -0.002120888 0.033164892 0.025605978 0.04102852
000270 bd 29 2d b9 3f 5e 86 3d a3 df bc 3a 68 9d ef 3a
       -0.00016514114 0.06560945 0.0014409911 0.0018281164
000280 18 4a 2c 3d 07 e7 e1 bc c8 f1 13 bd fa b5 37 bb
       0.04206285 -0.027575983 -0.036119252 -0.002803205
000290 37 d2 68 bb 4e c1 d5 3c 4c 1e c2 bc d3 ed 57 bd
       -0.0035525688 0.026093151 -0.023696087 -0.05271704
0002a0 3c 41 f9 3c c7 44 fe ba 33 03 47 3d 46 85 f0 3c
       0.030426614 -0.0019399159 0.048587035 0.029360425
0002b0 f8 33 af b9 de ca a6 ba 5c 29 ad 3c 6c ff a4 3b
       -0.0003341732 -0.0012725254 0.021137886 0.0050353315
0002c0 0f ab 81 bc 6d 0b e2 3c 62 4a 3d 3d 16 79 63 bb
       -0.015828637 0.027593339 0.046213515 -0.0034709624
0002d0 d0 fa ed 3b 9f d9 03 bd 15 aa 19 bd a4 46 53 3d
       0.007262565 -0.03218996 -0.03751572 0.05158104
0002e0 9c a3 8b 3b e8 4c 93 3b 38 c3 4e bd b8 a6 a5 3b
       0.004261447 0.004495252 -0.050479144 0.005055275
0002f0 0e c9 5e 3d a0 78 19 3d 44 5a 58 bc 3a ac 0e ba
       0.05439096 0.037468553 -0.013205115 -0.0005442534
000300 3b 8d 0d bd 71 7c 1c bc 6d df 4d bc 90 0e 36 bd
       -0.034558516 -0.0095511535 -0.012565476 -0.04444748
000310 a1 47 19 bd 9e 5a 8f ba 7b a3 1f 3c f3 60 2d 3d
       -0.037421826 -0.001093704 0.009743567 0.042328786
000320 a0 30 64 bd 2b a6 25 b9 2c 21 3d ba 95 f0 b3 bc
       -0.055710435 -0.00015797529 -0.0007214721 -0.021965304
000330 b5 95 d2 3c 80 59 d4 bb a5 60 f0 bc 76 57 66 3c
       0.025706152 -0.006480396 -0.029342959 0.014058938
000340 d6 85 97 bc 51 23 38 bb 26 5f 1d bb 24 75 2e 3c
       -0.018496435 -0.0028097222 -0.0024013012 0.010648046
000350 4b 1f 18 3d a2 ba c8 3a d6 71 2d bd ec b6 0a 3d
       0.03713922 0.001531441 -0.04234489 0.033865854
000360 c1 0c 5d bd a0 13 12 3d f4 fa 09 bb cd a4 a0 bb
       -0.05396724 0.035663247 -0.002105412 -0.0049024583
000370 21 ae 7c 3d 24 1c 18 bc f2 53 62 bb 77 be 61 3d
       0.0616895 -0.009284053 -0.0034534899 0.055113282
000380 55 1c 77 bb 2b 26 b8 3c 16 f3 11 3b 5f 26 0c bd
       -0.0037706096 0.022479137 0.0022270135 -0.03421628
000390 7a e4 98 bc 1e a1 19 3d bc 45 0e 3a 15 e8 4a bb
       -0.018663634 0.03750717 0.00054272613 -0.0030961086
0003a0 97 06 64 3a 59 ab 67 3d b2 17 2b 3d 25 57 8f bc
       0.0008698492 0.056559894 0.041770644 -0.017497608
0003b0 47 d0 71 3c d9 29 f5 bc f2 04 57 3d fc 23 38 bb
       0.01475913 -0.029927181 0.05249495 -0.002809762
0003c0 33 37 8f 3c 09 71 ab bb 46 20 e6 bc f1 30 5a bc
       0.017482376 -0.0052319807 -0.028091561 -0.013317333
0003d0 09 aa 92 39 ac 19 c1 3b c4 31 28 3c d5 08 52 bd
       0.00027973976 0.005892953 0.010265771 -0.051277954
0003e0 41 44 2e 3b b2 d2 03 3d 9f 8c c2 3b fd 02 cb 3c
       0.0026590975 0.032183357 0.0059371735 0.024781698
0003f0 b7 a5 67 3d 15 b1 85 ba 3f 80 e2 3a a6 0e 9c 3c
       0.056554522 -0.0010199869 0.0017280652 0.019049954
