checkpoint_actor.pth (torch_old, 673919 bytes, 6 tensors)

fc1.weight f4 [512, 57]
-0.016613197 0.029985724 0.006575989 0.03238079 -0.019022422 0.012513598 -0.003419188 0.017668523
0.015592684 0.025276057 -0.012962904 0.014623543 -0.016440673 0.043519896 0.03917341 0.04612589
-0.03145315 0.045899667 0.032528285 0.005857828 -0.014891727 -0.035221197 0.047667377 -0.029373646
-0.006511716 -0.029737704 -0.01744879 -0.005480099 -0.0062048244 -0.023985103 -0.0020217644 0.036074363
0.0046318173 0.039435193 -0.009363707 -0.03532173 0.027211303 0.0074525294 -0.0040802355 -0.023248611
-0.038196813 0.018474653 -0.00093404204 -0.014689369 -0.009334331 0.0044092447 0.0016584798 0.005960109
-0.02153758 -0.027119027 0.00031194984 0.009076454 -0.0020147264 -0.0053552478 -0.03455783 -0.043369047
-0.01638735 -0.019407129 0.028074602 -0.030750597 -0.037725642 0.009336169 -0.04316416 -0.030373335
0.0062835314 -0.0016832072 -0.015588812 0.02897422 0.005355625 0.02921624 0.035166867 -0.002337852
-0.00020110495 -0.04098196 0.032649312 -0.025840921 0.027699577 -0.041341532 -0.043213084 0.033787347
0.0068798536 0.00076174695 0.010963296 -0.022487087 0.0068901014 0.027038457 0.0028225577 0.017965399
0.03493541 -0.04311083 -0.0038145967 0.01252611 -0.03818989 -0.0043816604 0.032003753 -0.013500891
-0.017651385 -0.023096059 -0.003438186 -0.02610717 -0.013901327 0.038571216 0.023194458 0.030592103
-0.03212342 0.017616104 -0.03362191 -0.003409723 -0.026035666 0.0103909 0.005389063 -0.02122214
0.02675077 -0.037875637 0.029835474 0.043884847 0.03875963 -0.04268854 -0.024817972 -0.004501831
-0.029347261 0.040114556 -0.0012839399 0.034637008 0.027688008 0.010432161 0.016552377 0.0028075278
-0.034889057 -0.030263644 -0.0060088746 0.0028256737 0.029047284 -0.013150912 0.031611074 -0.03755303
-0.0107109435 0.02060574 -0.0320041 -0.017136302 0.017228398 -0.00088253245 -0.020541867 0.04013254
-0.00072740763 0.034127 -0.02835877 0.018437203 0.043523673 0.034482677 -0.0032784566 -0.008134805
0.011729978 0.013331674 -0.04322911 -0.0034332573 -0.021172853 -0.039829165 -0.026545707 -0.0038854182
0.00071919337 -0.007817496 0.042989302 0.011125471 -0.0034646764 -0.015794974 0.015706003 0.029921155
0.043323483 0.0130038 -0.0033505894 -0.035005078 0.035184015 -0.020817906 0.04919631 -0.024164315
0.04142586 -0.022702752 0.0034928203 0.010856154 -0.024785124 0.05299418 0.040384434 -0.02115951
-0.025014484 -0.00316179 0.028567433 0.011424353 0.0043538627 -0.007570811 -0.018203309 0.029013397
0.022494188 -0.017961975 -0.028348647 0.0062400675 -0.007061764 0.041070897 0.04274783 0.0131374365
0.0017609224 0.050153993 -0.04309755 -0.04026561 0.031631943 -0.02798989 0.049851336 -0.015417643
0.020711755 -0.00028524548 -0.00036951897 -0.038118772 -0.02504439 0.003587868 -0.016312853 0.037899695
0.041590687 -0.019629579 0.018492395 -0.031409778 0.025028292 0.045238186 0.018692885 0.010623876
0.011377469 0.004594311 0.0013393424 0.015963834 0.032339353 -0.026909597 0.026046094 -0.004511941
-0.016896307 -0.031700652 -0.024993196 -0.012769274 0.031547982 0.004521828 -0.04293605 0.043364916
0.011638772 0.019889075 0.018354308 -0.020121837 0.024696153 0.028130222 -0.03593247 0.016744148
-0.040364183 -0.034569282 -0.030560032 0.026427094 -0.039275557 0.00370555 0.00016608089 -0.008030046
00000000: 6618 88bc 9fa4 f53c 657b d73b b8a1 043d
00000010: e9d4 9bbc d605 4d3c 7514 60bb 94bd 903c
00000020: 7578 7f3c bc0f cf3c 5c62 54bc 9697 6f3c
00000030: 97ae 86bc eb41 323d 4c74 203d 80ee 3c3d
00000040: 05d5 00bd 4a01 3c3d 613c 053d 06f3 bf3b
00000050: 6efc 73bc 1a44 10bd de3e 433d 00a1 f0bc
00000060: 3c60 d5bb 7c9c f3bc c4f0 8ebc 6792 b3bb
00000070: d751 cbbb 687c c4bc 947f 04bb b6c2 133d
00000080: 80c6 973b cc86 213d 3c6a 19bc 85ad 10bd
00000090: 3dea de3c 5934 f43b 7fb3 85bb df73 bebc
000000a0: 4374 1cbd 2858 973c 80da 74ba aeab 70bc
000000b0: 06ef 18bc 6d7b 903b 5961 d93a 054d c33b
000000c0: 946f b0bc b928 debc 338d a339 68b5 143c
000000d0: 8009 04bb 137b afbb 838c 0dbd bea3 31bd
000000e0: c43e 86bc b3fb 9ebc b5fc e53c ade8 fbbc
000000f0: 3486 1abd bbf6 183c e7cc 30bd 80d1 f8bc
00000100: 15e6 cd3b 109f dcba 3768 7fbc 585b ed3c
00000110: 3d7e af3b e556 ef3c 220b 103d a636 19bb
00000120: b3df 52b9 b3dc 27bd 49bb 053d 57b0 d3bc
00000130: 39ea e23c bd55 29bd 3400 31bd 9a64 0a3d
00000140: 6570 e13b f9af 473a 659f 333c d736 b8bc
00000150: 5cc6 e13b c17f dd3c a9fa 383b 2c2c 933c
00000160: 6f18 0f3d fb94 30bd 50fe 79bb 503a 4d3c
00000170: 016d 1cbd 0894 8fbb 5e16 033d d732 5dbc
00000180: a399 90bc f233 bdbc 3053 61bb b4de d5bc
00000190: 64c2 63bc dafc 1d3d 4e02 be3c 4a9c fa3c
000001a0: d993 03bd a64f 903c 21b7 09bd a975 5fbb
000001b0: c048 d5bc 983e 2a3c bd96 b03b 0eda adbc
000001c0: 6e24 db3c 7c23 1bbd 8669 f43c 99c0 333d
000001d0: 6bc2 1e3d 2eda 2ebd 0f4f cbbc 1884 93bb
000001e0: ab69 f0bc 294f 243d e049 a8ba 89df 0d3d
000001f0: f6d1 e23c a8eb 2a3c da98 873c 80fe 373b
00000200: d4e7 0ebd 76eb f7bc 18e6 c4bb f02e 393b
00000210: 92f4 ed3c ec76 57bc 9d7a 013d 35d1 19bd
00000220: f47c 2fbc 5ecd a83c bb16 03bd 6e61 8cbc
00000230: 9222 8d3c c059 67ba 6b47 a8bc 0562 243d
00000240: 80af 3eba c1c8 0b3d a750 e8bc 9e09 973c
00000250: e145 323d b53d 0d3d 60db 56bb d847 05bc
00000260: 182f 403c 186d 5a3c 0211 31bd 8000 61bb
00000270: b172 adbc e823 23bd 6276 d9bc 80a2 7ebb
00000280: 4088 3c3a f414 00bc 8d15 303d 9c47 363c
00000290: a00f 63bb 7664 81bc e0a9 803c 361d f53c
000002a0: f773 313d e40d 553c 9095 5bbb 7c61 0fbd
000002b0: 1d1d 103d 508a aabc 1282 493d 3ef4 c5bc
000002c0: 2aae 293d 1ffb b9bc cde7 643b 03de 313c
000002d0: 2c0a cbbc 6d10 593d 266a 253d b556 adbc
000002e0: 2deb ccbc 0936 4fbb 4006 ea3c 362d 3b3c
000002f0: d9aa 8e3b 9114 f8bb 1b1f 95bc 81ad ed3c
00000300: bb45 b83c fe24 93bc 6c3b e8bc 7b79 cc3b
00000310: 5f66 e7bb f539 283d 5918 2f3d 673e 573c
00000320: c0ce e63a 466e 4d3d 0e87 30bd 8ded 24bd
00000330: 7f90 013d 0e4b e5bc ea30 4c3d 489a 7cbc
00000340: b3ab a93c 008d 95b9 ffbb c1b9 6e22 1cbd
00000350: e429 cdbc 7022 6b3b 88a2 85bc b63c 1b3d
00000360: ff5a 2a3d 36ce a0bc 5d7d 973c 8aa7 00bd
00000370: 2208 cd3c ad4b 393d d221 993c c40f 2e3c
00000380: 9068 3a3c e08b 963b e08c af3a 96c6 823c
00000390: 4576 043d 8471 dcbc 9e5e d53c e8d8 93bb
000003a0: 206a 8abc 8bd8 01bd 88be ccbc 3836 51bc
000003b0: 7538 013d d82b 943b b6dd 2fbd 699f 313d
000003c0: 8cb0 3e3c 6aee a23c c65b 963c 8dd6 a4bc
000003d0: 964f ca3c 5a71 e63c ed2d 13bd 062b 893c
000003e0: ea54 25bd 8598 0dbd 0859 fabc a27d d83c
000003f0: 68df 20bd d0d8 723b 0026 2e39 7490 03bc

fc1.bias f4 [512]
0.02156151 0.077528544 -0.039097622 -0.05591255 0.052045077 -0.07526029 0.067189544 -0.092613585
-0.0016761081 0.114401065 -0.09822572 -0.11693363 -0.08597052 -0.10056108 -0.121703655 0.10195147
0.07826459 0.069483586 -0.032216046 0.05553966 0.0035779774 0.076419085 0.0065956083 -0.0022929017
-0.0684887 -0.110497616 0.06550968 0.093351364 -0.10468588 -0.036527794 0.07319845 0.04589913
-0.05850069 0.020499703 0.05100678 -0.05279248 -0.056487042 -0.0065621883 -0.068712994 -0.05023853
0.121272795 -0.053039107 -0.023454398 -0.06764027 -0.04731439 0.13410713 -0.030494493 0.10146919
0.0842808 0.08066227 -0.12431379 0.12957117 -0.026463762 0.050100513 -0.064439684 -0.08691192
-0.0393267 -0.08451219 0.007012553 0.04105006 0.032311097 -0.0702996 0.014003316 0.07655914
-0.12249356 0.06804848 -0.10652026 -0.0352738 -0.009642488 0.061660033 -0.08118084 -0.07096239
-0.040036887 0.0036125432 -0.08808455 -0.050282367 0.09372285 0.053721007 -0.09695509 -0.13205442
0.066276774 -0.1065456 -0.097280465 -0.123986885 -0.068856925 -0.062893 -0.12056347 -0.047898725
0.052261725 -0.12644283 0.087521836 -0.08835149 -0.011836164 -0.08704013 0.057670772 -0.07583921
0.083802 0.08338007 -0.072915286 -0.11928712 0.07992152 0.086846635 -0.08136372 0.130107
0.01441548 -0.0058754594 0.103348255 -0.046470553 -0.07893765 0.12876582 0.12566678 -0.09237665
-0.050244786 0.123633 -0.0075329766 0.1093172 0.12564467 -0.0791249 -0.03184598 0.072940215
-0.12156699 0.106856 0.13032977 0.032847796 -0.09011003 -0.036208473 0.07382229 0.022248415
-0.022358514 -0.056734934 -0.0703338 -0.10306172 0.070857234 -0.08540501 -0.0065665757 -0.058289386
-0.12765221 0.015500575 -0.08982667 0.09416019 0.10940555 0.021263134 -0.051893216 0.014837733
0.07320906 0.0144748315 -0.12596779 -0.005564254 0.04174932 -0.047750413 -0.0045529534 0.008582025
0.06512983 0.09411902 0.05403945 0.06641751 0.09902324 0.032776296 -0.09271648 -0.019287426
-0.056031346 -0.10678453 -0.07422452 -0.08608481 -0.0014659783 -0.1062659 -0.07028186 0.10184878
-0.037305474 0.053271025 0.11532694 -0.0018969734 0.060102835 -0.026208647 -0.109536886 0.083010115
-0.08890852 -0.09590022 -0.019723386 -0.022981577 0.10370836 -0.11800674 0.09301543 -0.044419296
-0.113560826 -0.021195404 -0.03363816 -0.036250085 0.017012952 0.12121653 0.057774007 -0.08801114
-0.034560256 -0.08552783 0.10853142 -0.0096149845 0.12722751 -0.054350935 -0.11447608 0.04193364
0.011432047 0.11948147 0.117706925 0.1293416 0.06815543 -0.08523193 0.0722656 0.004054277
-0.04084274 -0.029718792 0.123755634 -0.014484029 0.0051699323 0.10074052 -0.053373095 -0.10496477
0.007831161 -0.013858467 -0.10133961 0.037069105 -0.078771815 0.086518675 0.046968825 -0.06404268
0.050419297 0.071428984 0.05644931 0.11848965 -0.07966 0.11310612 -0.1033168 -0.09253582
-0.00029132195 0.1274115 -0.13125728 0.029265856 0.07801008 -0.011902357 0.0975107 0.04973842
-0.12781824 0.10665412 -0.13170053 0.10589935 0.12867285 0.07376407 0.08952174 -0.11710575
0.07848754 0.13391195 0.1235359 -0.011640972 0.08209817 -0.09484033 -0.12407642 -0.11220924
00000000: c4a1 b03c 49c7 9e3d d424 20bd 8f04 65bd
00000010: 382d 553d 1122 9abd ac9a 893d 31ac bdbd
00000020: dbb0 dbba 1b4b ea3d 912a c9bd e67a efbd
00000030: 5011 b0bd f8f2 cdbd c43f f9bd efcb d03d
00000040: 2f49 a03d 694d 8e3d f9f4 03bd 8e7d 633d
00000050: 807c 6a3b 9c81 9c3d f91f d83b 8244 16bb
00000060: ce43 8cbd 934c e2bd f029 863d 002f bf3d
00000070: 8d65 d6bd 2b9e 15bd 12e9 953d ba00 3c3d
00000080: 6b9e 6fbd feee a73c 7cec 503d ed3c 58bd
00000090: f55e 67bd a007 d7bb 66b9 8cbd ebc6 4dbd
000000a0: df5d f83d 893f 59bd 7023 c0bc fb86 8abd
000000b0: bccc 41bd 6153 093e 96cf f9bc 14cf cf3d
000000c0: 699b ac3d 4332 a53d 3a98 febd 4eae 043e
000000d0: 88ca d8bc 3236 4d3d f4f8 83bd e0fe b1bd
000000e0: 0915 21bd ba14 adbd 8fc9 e53b 1c24 283d
000000f0: a458 043d 3df9 8fbd 2a6e 653c 0acb 9c3d
00000100: e7dd fabd 005d 8b3d 4b27 dabd 437b 10bd
00000110: 87fb 1dbc 3b8f 7c3d 2442 a6bd bb54 91bd
00000120: b8fd 23bd 6bc0 6c3b ac65 b4bd e2f4 4dbd
00000130: c4f1 bf3d 8f0a 5c3d 6490 c6bd 4639 07be
00000140: 1ebc 873d 9434 dabd fb3a c7bd d6ec fdbd
00000150: dc04 8dbd 0cce 80bd fbe9 f6bd 7431 44bd
00000160: 6410 563d 3b7a 01be a63e b33d a0f1 b4bd
00000170: 78ec 41bc 1842 b2bd 3038 6c3d 9651 9bbd
00000180: 62a0 ab3d 2cc3 aa3d 9c54 95bd ce4c f4bd
00000190: e5ad a33d a6dc b13d 06a2 a6bd c53a 053e
000001a0: e82e 6c3c ed86 c0bb 40a8 d33d e857 3ebd
000001b0: 10aa a1bd 30db 033e cbae 003e f82f bdbd
000001c0: 7acd 4dbd 4c33 fd3d 30d7 f6bb b2e1 df3d
000001d0: ffa8 003e 3c0c a2bd ee70 02bd ae61 953d
000001e0: 1df8 f8bd 52d7 da3d 2b75 053e 698b 063d
000001f0: 9b8b b8bd 564f 14bd 2430 973d 4f42 b63c
00000200: 3429 b7bc e462 68bd 2b0b 90bd 0612 d3bd
00000210: 991d 913d d2e8 aebd 6e2c d7bb dac0 6ebd
00000220: 43b7 02be 20f6 7d3c 0cf7 b7bd 0fd7 c03d
00000230: 0410 e03d 0630 ae3c fb8d 54bd f619 733c
00000240: a2ee 953d d827 6d3c b3fd 00be 5854 b6bb
00000250: 5601 2b3d f095 43bd f130 95bb 9f9b 0c3c
00000260: ca62 853d 79c1 c03d 7858 5d3d e705 883d
00000270: b2cc ca3d 7040 063d 23e2 bdbd aa00 9ebc
00000280: 2081 65bd d9b1 dabd 0603 98bd 3c4d b0bd
00000290: 1226 c0ba f0a1 d9bd f0ef 8fbd 1896 d03d
000002a0: a0cd 18bd b832 5a3d 8830 ec3d dda3 f8ba
000002b0: 642e 763d 84b3 d6bc e054 e0bd 3501 aa3d
000002c0: ac15 b6bd 5667 c4bd f092 a1bc dc43 bcbc
000002d0: 0c65 d43d 85ad f1bd e07e be3d 02f1 35bd
000002e0: 9492 e8bd fca1 adbc 2bc8 09bd f87a 14bd
000002f0: bf5e 8b3c 5f40 f83d 70a4 6c3d 2f3f b4bd
00000300: 0e8f 0dbd 3729 afbd b945 de3d 2b88 1dbc
00000310: ee47 023e 169f 5ebd 6f72 eabd 9cc2 2b3d
00000320: 7b4d 3b3c b3b2 f43d 5410 f13d 2072 043e
00000330: 1395 8b3d 148e aebd fdff 933d bed9 843b
00000340: b84a 27bd d374 f3bc 9873 fd3d 6c4e 6dbc
00000350: 8968 a93b 0c51 ce3d bf9d 5abd c5f7 d6bd
00000360: 454e 003c a00e 63bc 248b cfbd c6d5 173d
00000370: 1e53 a1bd b430 b13d 6262 403d cf28 83bd
00000380: 7784 4e3d 5c49 923d 6437 673d b4aa f23d
00000390: c824 a3bd 2ea4 e73d c297 d3bd 6c83 bdbd
000003a0: 92bc 98b9 2978 023e 4f68 06be f3be ef3c
000003b0: c0c3 9f3d 1b02 43bc b1b3 c73d 83ba 4b3d
000003c0: c9e2 02be 7a6d da3d 81dc 06be c2e1 d83d
000003d0: d1c2 033e 9e11 973d 2d57 b73d 24d5 efbd
000003e0: 13be a03d 3720 093e 6400 fd3d c7b9 3ebc
000003f0: 1623 a83d a63b c2bd c71b febd f5cd e5bd

fc2.weight f4 [256, 512]
0.013487583 -0.0013146163 0.0016553849 0.041411456 -0.050996676 0.057200775 -0.0136367455 -0.0055790544
0.010731153 -0.056868713 0.05656562 0.017707162 -0.020547315 -0.0006489165 0.05348604 0.05369785
0.031396426 0.02008537 0.054310974 0.015053135 -0.058149047 -0.009571224 -0.04979031 0.01751992
0.029456139 0.05570736 0.009228133 -0.05125097 0.0027036997 -0.017762888 0.05215228 0.0625986
0.05924901 -0.043115396 -0.012429547 0.0076061776 -0.05192888 0.04566721 0.03676054 -0.0120137995
0.036332577 0.00705116 0.055166796 -0.047121465 0.045605425 0.058367386 -0.014679872 0.031698573
-0.048760906 -0.052073248 -0.056791298 -0.05278488 0.03724516 0.03623177 -0.009215823 0.01700541
0.0032226716 0.034490697 -0.04564559 -0.05188103 0.0024817884 -0.0062664025 -0.040094674 -0.011306968
-0.050542388 -0.0029953562 0.063230716 -0.008034732 0.029028501 -0.038051464 -0.049945295 0.024358414
0.05121941 0.03401648 -0.008420177 -0.016297117 -0.004906036 0.0028914372 -0.03353397 0.028909095
0.060107432 0.026984468 0.0019871742 0.03733578 -0.026183791 -0.055165768 0.04761176 -0.0063737277
0.0021673492 0.026547939 -0.04921361 0.045629814 -0.05128281 0.04437872 -0.017054051 -0.00738474
0.01692804 0.04326438 -0.04372661 0.03950919 -0.0408357 -0.03799143 0.04193501 -0.018117946
0.046391115 -0.055983543 -0.051340237 -0.027032651 -0.02416326 0.05409436 -0.038893916 0.04580827
0.008243171 -0.056116745 -0.011796519 0.027798586 -0.020382388 0.016692817 -0.0064533353 -0.0050447024
-0.060087435 0.011324005 0.012408338 0.03787651 -0.02218904 0.060356624 -0.04212533 -0.047327332
-0.055484854 0.045375295 -0.0075452398 -0.057837665 0.020774923 0.04060052 -0.009323284 -0.047524754
0.063659936 -0.056208245 0.042827185 0.010685443 0.049928572 0.011314306 0.057399254 -0.03532235
-0.0061925948 -0.0077191833 -0.012968607 0.042287346 -0.012517317 -0.037883557 0.010992378 -0.008985323
0.059417203 0.059464425 0.050793972 0.011058303 -0.05131493 0.03106114 -0.023423629 -0.05110742
0.01125814 0.04962154 -0.028869994 0.011893368 0.052941967 -0.023988694 -0.010525964 -0.033000574
0.057815738 -0.008694858 0.035199497 -0.00083569187 0.016256332 0.02294796 0.040147454 0.032824673
0.05995771 0.0344351 -0.031841874 -0.03332211 -0.049636297 0.05092402 0.053815737 -0.012576343
0.023865178 0.009316474 0.036981836 -0.04269065 0.040258016 0.035981044 0.031430308 0.024530718
-0.02415882 0.03951167 -0.0037847187 0.04662427 -0.05621215 0.04637993 -0.037314285 -0.016493408
-0.017648974 -0.009729438 -0.055490263 0.06044378 -0.057745807 -0.04368817 -0.004169807 -0.033353634
0.05145967 0.054877497 0.021842286 0.043977804 0.025757615 -0.042116567 0.019329354 0.012152843
0.05391968 -0.0572192 -0.026472058 0.023222135 -0.019333245 -0.0444891 0.025525536 0.037365064
0.0200266 -0.0033686368 0.03631771 0.013674423 -0.051669367 -0.042762496 -0.029797308 0.0034434677
-0.050252236 0.00057946553 -0.02844362 -0.01841551 -0.057571873 0.03581878 -0.04795596 0.015329097
-0.014755743 0.017442012 0.013214912 0.020905845 -0.057013772 -0.012944333 -0.05585364 0.021219365
-0.036707506 -0.047512118 -0.038284436 0.012632649 0.049788494 0.03558673 0.024672914 0.049732454
00000000: 06fb 5c3c 344f acba 80f9 d83a 0f9f 293d
00000010: e4e1 50bd 5c4b 6a3d a86c 5fbc 80d0 b6bb
00000020: b8d1 2f3c 2bef 68bd 5ab1 673d 9c0e 913c
00000030: d852 a8bc 0d1c 2aba 2e14 5b3d 47f2 5b3d
00000040: 8a99 003d 138a a43c 2f75 5e3d 6da1 763c
00000050: b22d 6ebd a0d0 1cbc edf0 4bbd ef85 8f3c
00000060: 004e f13c 672d 643d 9831 173c 8aec 51bd
00000070: 8e30 313b 7a83 91bc a19d 553d b233 803d
00000080: 17af 723d c599 30bd 4ca5 4bbc 3e3d f93b
00000090: 61b3 54bd 8a0d 3b3d 3892 163d 87d5 44bc
000000a0: 78d1 143d 6b0d e73b 94f6 613d 7002 41bd
000000b0: c1cc 3a3d a412 6f3d d983 70bc 5dd6 013d
000000c0: 84b9 47bd c24a 55bd fe9d 68bd f534 58bd
000000d0: 628e 183d c467 143d f7fd 16bc ee4e 8b3c
000000e0: 7533 533b 1e46 0d3d dff6 3abd 3481 54bd
000000f0: 80a5 223b 6556 cdbb 503a 24bd dc40 39bc
00000100: 8905 4fbd bd4d 44bb 1b7f 813d 1ca4 03bc
00000110: 2ecd ed3c dadb 1bbd 7093 4cbd 4c8b c73c
00000120: 72cb 513d dd54 0b3d c8f4 09bc 8881 85bc
00000130: d0c2 a0bb 447e 3d3b eb5a 09bd c4d2 ec3c
00000140: 3633 763d 880e dd3c 403b 023b 67ed 183d
00000150: 647f d6bc 80f5 61bd 8d04 433d b4da d0bb
00000160: 160a 0e3b 107b d93c 3694 49bd 54e6 3a3d
00000170: ec0d 52bd 76c6 353d f0b4 8bbc b0fb f1bb
00000180: acac 8a3c fe35 313d ac1a 33bd 63d4 213d
00000190: 5643 27bd e79c 1bbd 0cc4 2b3d 166c 94bc
000001a0: 9c04 3e3d 004f 65bd 244a 52bd 9473 ddbc
000001b0: 07f2 c5bc 0c92 5d3d 3a4f 1fbd 74a1 3b3d
000001c0: 5d0e 073c acda 65bd 3046 41bc dcb9 e33c
000001d0: f7f8 a6bc 60bf 883c 8076 d3bb 084e a5bb
000001e0: 3e1e 76bd 5288 393c 574c 4b3c 6624 1b3d
000001f0: cac5 b5bc 8238 773d 9c8b 2cbd 4eda 41bd
00000200: 1644 63bd 72db 393d 0f3e f7bb 30e7 6cbd
00000210: 2c30 aa3c bb4c 263d b0c0 18bc 51a9 42bd
00000220: 2460 823d 9e3a 66bd 8f6b 2f3d ff11 2f3c
00000230: e781 4c3d a45f 393c 7b1b 6b3d 2bae 10bd
00000240: 40eb cabb 34f1 fcbb 487a 54bc 7f35 2d3d
00000250: 6f15 4dbc ca2b 1bbd 6019 343c 2d37 13bc
00000260: 745f 733d f890 733d 570d 503d e22d 353c
00000270: 9b2f 52bd ef73 fe3c e9e2 bfbc 0456 51bd
00000280: 1074 383c f53f 4b3d c480 ecbc 67dc 423c
00000290: add9 583d f083 c4bc 1875 2cbc 9c2b 07bd
000002a0: 32d0 6c3d e174 0ebc 592d 103d 5512 5bba
000002b0: 002c 853c 5cfd bb3c a871 243d 2a73 063d
000002c0: 3796 753d d20b 0d3d a06c 02bd c47c 08bd
000002d0: 6e4f 4bbd b595 503d e46d 5c3d 010d 4ebc
000002e0: e880 c33c 20a4 183c 447a 173d 64dc 2ebd
000002f0: 97e5 243d dc60 133d 11bd 003d a5f4 c83c
00000300: b8e8 c5bc fdd6 213d 0b09 78bb 17f9 3e3d
00000310: b63e 66bd e2f8 3d3d ddd6 18bd 2f1d 87bc
00000320: 9594 90bc 3968 1fbc c249 63bd e693 773d
00000330: de86 6cbd 5ef2 32bd e0a2 88bb d29d 08bd
00000340: 60c7 523d 3ac7 603d 98ee b23c 1222 343d
00000350: a201 d33c 6c82 2cbd 9858 9e3c b81c 473c
00000360: e2da 5c3d ae5e 6abd eedb d8bc 593c be3c
00000370: c160 9ebc 343a 36bd ee1a d13c 1c0c 193d
00000380: d30e a43c 59c4 5cbb e1c1 143d b00a 603c
00000390: 42a3 53bd ba27 2fbd 7c19 f4bc cdab 613b
000003a0: 4ad5 4dbd 46e7 173a 9802 e9bc 20dc 96bc
000003b0: 7cd0 6bbd b7b6 123d 786d 44bd e526 7b3c
000003c0: 12c2 71bc 8de2 8e3c 5c83 583c bc42 ab3c
000003d0: 4687 69bd 7814 54bc c9c6 64bd 3cd4 ad3c
000003e0: 9c5a 16bd 119c 42bd 24d0 1cbd 2cf9 4e3c
000003f0: 05ef 4b3d 64c3 113d da1e ca3c 42b4 4b3d

fc2.bias f4 [256]
0.004549493 -0.024560276 0.04254435 0.04207504 -0.02290742 -0.005135983 0.03016838 0.042491294
-0.031503987 -0.02276119 -0.002347263 -0.04036122 0.0125546865 -0.022927638 0.0028498939 -0.029809754
0.00590757 -0.038752943 -0.035891768 -0.003553389 -0.036823444 0.0054814713 -0.03903041 0.031314287
-0.03243386 0.04402353 -0.025767714 -0.009402671 0.0054392098 -0.03732409 0.012280451 -0.010071314
-0.021446876 -0.032352056 0.0118782 -0.031516664 -0.0070984494 0.01674658 0.00994203 -0.0102712605
-0.027586134 -0.03576101 -0.013237625 0.03107461 0.0357743 0.027456785 0.017591089 0.026228737
-0.0363808 0.045445137 -0.014059272 0.033688847 -0.026708268 -0.028312415 0.009239071 0.030290056
-0.00584551 0.03369323 -0.0026404415 0.022817276 0.013080113 -0.03907643 0.0097134365 -0.029457351
-0.024011508 -0.0416687 -0.042900354 0.016353857 -0.017461823 0.024770949 0.031579584 0.030375771
0.009323092 -0.040298745 0.023533717 -0.020215547 -0.021916585 0.016636506 -0.01940974 -0.016441263
0.04370226 -0.02269829 0.023285836 -0.020293701 -0.013657313 -0.039092015 0.0066122976 0.044602692
-0.025615271 -0.027630951 -0.012036091 -0.035641536 -0.023000384 0.042553607 0.026970074 0.014063761
-0.03978393 -0.006536944 0.008632175 -0.028134884 0.039165203 0.036355156 0.018576061 0.017705958
0.021715429 0.039022993 0.01577409 -0.03994394 0.02579122 0.023966745 0.045224756 0.016655866
0.016768752 0.0034396865 -0.031357408 0.037346248 0.012223665 0.011323157 -0.019302586 0.034145236
0.00024637615 -0.017278166 0.024241427 -0.008091725 0.022365112 0.04161456 0.028425211 -0.035369575
-0.024862051 -0.02380857 -0.020365627 -0.00040997416 0.04051643 0.0069096927 0.0371591 0.033576373
0.021514926 0.033693876 -0.03297106 0.02261262 0.020806959 0.029241284 0.0026693903 0.03945334
0.007628422 -0.036756884 0.038967323 0.017015472 0.042237084 0.024384335 0.037918344 -0.02453412
-0.037991233 -0.0055645215 -0.01554298 -0.043257743 -0.010016573 0.027103199 -0.011044168 -0.039958052
-0.045141187 -0.02016527 0.021161418 0.028449316 -0.023489635 0.014381928 0.036222775 -0.031767163
0.037165422 0.011298444 -0.02781518 0.0351655 -0.0029503966 0.008384515 0.0017117958 0.0078219175
0.021894405 -0.0008988744 0.013525859 -0.018638803 0.045776106 0.0018798187 0.024787713 -0.012691073
0.0050551035 -0.012189012 0.019550499 0.00011937693 -0.038138594 0.03228174 0.0086433925 -0.03374749
0.007197637 -0.03327457 0.0046871863 0.0019797888 -0.02505237 -0.0055481233 0.032420766 0.032220762
-0.009368822 -0.033734754 -0.016146354 0.03269655 0.00045001841 0.0010128515 -0.026274798 0.004840644
-0.0021840036 -0.024577841 0.026377717 -0.040783912 -0.018216183 -0.004651241 -0.03910717 0.0381727
-0.008024363 0.02809525 0.041275214 -0.03649103 0.039839108 0.032586448 0.03938841 -0.036350276
0.033406015 0.030884549 0.017153995 0.018245589 0.03779081 0.019904155 0.009903203 -0.030216407
0.020589564 0.023602705 -0.029907858 -0.03627628 0.042047363 -0.033668946 0.01050771 -0.012905672
-0.03817298 0.042212095 0.019658724 0.0063388655 -0.01765854 0.022946207 -0.007662428 -0.008788239
-0.04271493 0.030138817 -0.0013652616 -0.037851617 -0.0041147657 -0.031893205 -0.03675979 -0.030300695
00000000: ea13 953b a232 c9bc fc42 2e3d e156 2c3d
00000010: 57a8 bbbc c04b a8bb ae23 f73c 5a0b 2e3d
00000020: 530a 01bd ad75 babc 8ad4 19bb ce51 25bd
00000030: 2cb2 4d3c bed2 bbbc 49c5 3a3b 9633 f4bc
00000040: 4a94 c13b 68bb 1ebd 3f03 13bd fadf 68bb
00000050: 2ed4 16bd ea9d b33b 5ade 1fbd 6943 003d
00000060: 5ed9 04bd 0452 343d d016 d3bc a90d 1abc
00000070: 663b b23b 25e1 18bd f233 493c 2702 25bc
00000080: 5cb1 afbc 9783 04bd c89c 423c 9e17 01bd
00000090: 1c9a e8bb 2030 893c e5e3 223c ca48 28bc
000000a0: 51fc e1bc 237a 12bd a0e2 58bc 2e90 fe3c
000000b0: 1388 123d 0ded e03c 301b 903c a6dd d63c
000000c0: 0904 15bd ae24 3a3d dc58 66bc 51fd 093d
000000d0: 4ccb dabc 70ef e7bc 795f 173c da22 f83c
000000e0: b18b bfbb ea01 0a3d 420b 2dbb 4ceb ba3c
000000f0: f84d 563c 9b0e 20bd 1b25 1f3c 8b50 f1bc
00000100: c8b3 c4bc ccac 2abd 48b8 2fbd 86f8 853c
00000110: 190c 8fbc 72ec ca3c 9859 013d 9cd6 f83c
00000120: e2bf 183c 4c10 25bd c8c9 c03c 139b a5bc
00000130: 698a b3bc 4849 883c 2d01 9fbc d4af 86bc
00000140: 2401 333d c4f1 b9bc f0c1 be3c fa3e a6bc
00000150: ecc2 5fbc f31e 20bd f9ab d83b 50b1 363d
00000160: 1ed7 d1bc 4e5a e2bc 0633 45bc dcfc 11bd
00000170: 4d6b bcbc b14c 2e3d 58f0 dc3c b06b 663c
00000180: 79f4 22bd dc33 d6bb f76d 0d3c 217b e6bc
00000190: b16b 203d 25e9 143d d32c 983c 160c 913c
000001a0: 8ee4 b13c 93d6 1f3d aa38 813c 429c 23bd
000001b0: 1c48 d33c e855 c43c 983d 393d e271 883c
000001c0: 9f5e 893c 5d6c 613b a070 00bd 61f8 183d
000001d0: c445 483c c384 393c 7520 9ebc e0db 0b3d
000001e0: 0c2c 8139 f18a 8dbc f595 c63c 2893 04bc
000001f0: 0a37 b73c 0774 2a3d fddb e83c b0df 10bd
00000200: 80ab cbbc 310a c3bc d1d5 a6bc cdf1 d6b9
00000210: 8ef4 253d b46a e23b 2434 183d 6187 093d
00000220: 1240 b03c 9702 0a3d aa0c 07bd 1a3e b93c
00000230: 5b73 aa3c 6b8b ef3c f0f0 2e3b d399 213d
00000240: d8f7 f93b 638e 16bd 339c 1f3d 0864 8b3c
00000250: cb00 2d3d a8c1 c73c 4450 1b3d c7fb c8bc
00000260: b29c 1bbd 9756 b6bb fca7 7ebc 082f 31bd
00000270: 8d1c 24bc 8707 de3c 99f2 34bc 0eab 23bd
00000280: f7e5 38bd a331 a5bc b65a ad3c 8a0e e93c
00000290: 566d c0bc 2ea2 6b3c 555e 143d 491e 02bd
000002a0: c53a 183d 1c1d 393c a9dc e3bc b309 103d
000002b0: 715b 41bb 345f 093c 565e e03a 8027 003c
000002c0: e55b b33c 71a2 6bba 919b 5d3c 67b0 98bc
000002d0: ba7f 3b3d 4064 f63a 9a0f cb3c 38ee 4fbc
000002e0: 48a5 a53b 6cb4 47bc 5e28 a03c 005a fa38
000002f0: 3737 1cbd dc39 043d 049d 0d3c cf3a 0abd
00000300: 28da eb3b ea4a 08bd f896 993b 58bf 013b
00000310: a13a cdbc 08cd b5bb a3cb 043d ebf9 033d
00000320: b07f 19bc 742d 0abd 5c45 84bc d1ec 053d
00000330: 73f0 eb39 a8c1 843a 3f3e d7bc 449e 9e3b
00000340: 8021 0fbb 7857 c9bc 1516 d83c 080d 27bd
00000350: 1b3a 95bc 7069 98bb d72e 20bd fa5a 1c3d
00000360: 9e78 03bc 0228 e63c 3310 293d 9e77 15bd
00000370: 552e 233d 5e79 053d be55 213d 07e4 14bd
00000380: bfd4 083d 9801 fd3c 8986 8c3c c677 953c
00000390: 89ca 1a3d 0a0e a33c 0b41 223c 6688 f7bc
000003a0: 72ab a83c 765a c13c 5301 f5bc 7096 14bd
000003b0: db39 2c3d 73e8 09bd 8828 2c3c 5072 53bc
000003c0: 455b 1cbd 97e6 2c3d 550b a13c 42b6 cf3b
000003d0: a4a8 90bc aff9 bb3c 1b15 fbbb 8cfc 0fbc
000003e0: daf5 2ebd aee5 f63c 94f2 b2ba 4c0a 1bbd
000003f0: 28d5 86bb 73a2 02bd 6f91 16bd 2a39 f8bc

fc3.weight f4 [28, 256]
-0.0037315954 -0.002203766 -0.0005706521 -0.0015395496 -0.00060287135 -0.0016719603 -0.0020849062 -0.0062054195
-0.0018951419 0.001455486 -0.0043170787 -0.0019318367 -0.0023755422 -0.0020453427 -0.006643546 0.00031615724
-0.0031242108 -0.00010558218 0.00027887637 0.0025189875 -0.002174927 -0.0029626042 -0.00017024607 0.0001811774
-0.00059877237 -0.0057419757 0.00065964577 -0.001871681 -0.0043114317 -0.0024817942 -0.0044016736 0.00030101987
-0.0029923904 -0.0026445347 -0.0042467806 -0.000120756755 -0.018094013 0.00037488202 -0.0031657654 -0.0047043213
-0.0009799263 -0.0025517363 -0.0045475285 -0.00046983012 -0.001573247 -0.0036550977 -0.029500285 0.0020335838
-0.0025038333 -0.0060093864 -0.0005894727 -0.0023981885 -0.00084531214 -0.000943316 0.003090365 0.0022941516
-0.0032771686 -0.0035277277 -0.0056559066 -0.0019227532 -0.0004619225 -0.0028894225 -0.0028375296 -0.0023219388
-0.0020720595 -0.0015901552 -0.0013578183 0.0003276683 -0.0008011693 0.00023988844 -0.00378256 -0.0016206665
-0.0008046403 0.002384267 -0.0046139704 -0.00015183516 -0.003652369 -0.0052459887 0.00011984189 -0.00023249182
-0.0008090859 -0.00019173838 -0.0022360026 -0.00010150485 -0.0005871407 0.0007934737 -0.0031549882 -0.0027892096
-0.0014916402 -0.0002909361 -0.0035057454 -7.540942e-05 -0.00019691233 -0.0016106445 -0.0035736088 -0.003807441
-0.00044986152 -0.0052263103 -0.00595257 -0.0037465354 0.00260212 -0.00251383 -0.0016317819 -0.005546278
-0.004688521 -0.0022945025 0.00014967978 0.0007673267 -0.002974638 -0.004667401 -0.0024016742 -0.0025217407
-0.0016942453 -0.0030095326 -0.0009668039 0.0007272891 0.0023023426 -0.018101243 -0.0025849815 -0.0008145387
-0.0012819795 0.0002584642 -0.0011463697 -0.000103234546 -0.0025578553 -0.0035099713 -0.005419107 0.002463276
-0.000648065 0.0029360023 -0.00046801 -0.0020774426 -0.0041283476 -0.0024141935 -0.0043942574 0.00055292784
-0.0024848457 -0.002448241 -0.00051653525 0.0026047355 -0.0005751927 -0.0026271795 0.000608623 0.0021155206
0.002919841 -0.0024375413 -0.0041300133 -0.0027813988 0.00054310024 -0.0052327905 -0.002766864 -0.0013963958
-0.004003584 -0.001115549 -0.006841146 0.0017688847 -0.00013387804 -0.0017357209 0.00076413195 0.0019318869
-0.0005766261 0.0026269155 0.0016733245 0.0023539667 -0.00033767338 -0.030296605 -0.00127346 -0.0046062754
-0.0024847991 -0.00069653685 -0.0037200844 -0.0026831157 -0.00019842829 -0.002670377 -0.0014716104 -0.0015936971
-0.0028932306 -0.0034493252 -0.0016949838 -0.0005065845 -0.0024467655 0.0017107576 -0.0022793543 0.0012188796
0.0012954059 -0.0005112798 -0.00048773317 0.0019892417 -0.003807029 -0.0052798544 0.002106348 -0.006648839
0.0019344874 0.0012673447 -0.0026222505 -0.00355147 -0.0020960302 0.0019548917 -0.0023489571 -0.0050436305
-0.000792881 0.00032224596 -0.00405066 0.00034359316 -0.0010889495 -0.008097581 -0.0033970496 -0.002277739
0.00284706 -0.004578995 -0.027538892 -0.0035760545 0.0018363791 0.0011321274 -0.0004675883 0.0022487661
-0.00050904986 -0.0018441466 0.001863821 0.002046764 -0.00040912558 -0.0009692842 -0.000331119 -0.004116506
-0.0013204075 -0.0045372397 -0.0017508264 -0.00045068967 -0.0011061439 -0.0026711016 -0.018814709 -0.005993945
0.00046601729 0.0016703904 -0.000116793766 -0.00020797101 0.0010694014 -0.001965308 0.000464521 0.0007063891
-0.005880106 -0.004813234 -0.0010932034 -0.0028270513 -0.003533829 -0.00013818101 -0.0035509153 0.00215108
0.0029245778 0.0019235206 -0.005495481 0.0007757636 0.0013109595 -0.0026915278 -0.0037093465 4.4197895e-05
00000000: c88d 74bb 0f6d 10bb d097 15ba b6ca c9ba
00000010: 030a 1eba ae25 dbba eca2 08bb d556 cbbb
00000020: 6966 f8ba 02c6 be3a 4876 8dbb af35 fdba
00000030: fcae 1bbb 280b 06bb 1ab2 d9bb e8c1 a539
00000040: 8fbf 4cbb 006c ddb8 2736 9239 9915 253b
00000050: 3889 0ebb 4028 42bb 1584 32b9 70fa 3d39
00000060: eff6 1cba 2f27 bcbb 14ec 2c3a 3153 f5ba
00000070: e946 8dbb 99a5 22bb ea3b 90bb 34d2 9d39
00000080: fb1b 44bb ee4f 2dbb 9428 8bbb ca3e fdb8
00000090: e539 94bc d08b c439 bb78 4fbb b526 9abb
000000a0: df70 80ba 083b 27bb 6f03 95bb 8853 f6b9
000000b0: 6935 ceba 5d8a 6fbb 95aa f1bc e045 053b
000000c0: 5a17 24bb 63ea c4bb d886 1aba ed2a 1dbb
000000d0: f097 5dba dd48 77ba b987 4a3b 7a59 163b
000000e0: c4c5 56bb 7331 67bb 2f55 b9bb e404 fcba
000000f0: 302e f2b9 775c 3dbb d9f5 39bb ab2b 18bb
00000100: 64cb 07bb c16c d0ba d2f8 b1ba e5ca ab39
00000110: 9005 52ba 908a 7b39 d3e4 77bb 8b6c d4ba
00000120: 7fee 52ba 5d41 1c3b ca30 97bb f135 1fb9
00000130: 955c 6fbb 8be6 abbb a053 fb38 0cc9 73b9
00000140: d618 54ba 610d 49b9 e689 12bb 00df d4b8
00000150: 58ea 19ba 1e01 503a ebc3 4ebb 2ccb 36bb
00000160: 2483 c3ba c888 98b9 a6c0 65bb 2025 9eb8
00000170: 407a 4eb9 431c d3ba 3533 6abb 4386 79bb
00000180: 64db ebb9 7841 abbb c70d c3bb 6f88 75bb
00000190: 5488 2a3b 12bf 24bb 84e1 d5ba 8dbd b5bb
000001a0: 2aa2 99bb 5d5f 16bb 5cf3 1c39 6c26 493a
000001b0: 25f2 42bb fff0 98bb 6865 1dbb ca43 25bb
000001c0: 7011 deba 943b 45bb 1d71 7dba 8ca7 3e3a
000001d0: e6e2 163b 0f49 94bc cb68 29bb c486 55ba
000001e0: 1808 a8ba 7a82 8739 c941 96ba a07f d8b8
000001f0: b1a1 27bb 8c07 66bb c492 b1bb ea6e 213b
00000200: e8e2 29ba f269 403b 3d5f f5b9 b425 08bb
00000210: 1747 87bb 7237 1ebb b4fd 8fbb 5cf2 103a
00000220: cbd8 22bb ab72 20bb 1868 07ba 36b4 2a3b
00000230: 87c8 16ba c22c 2cbb 008c 1f3a 8ca4 0a3b
00000240: ce5a 3f3b 28bf 1fbb 1055 87bb 2148 36bb
00000250: d75e 0e3a d477 abbb 4654 35bb 4507 b7ba
00000260: 7f30 83bb 9d37 92ba b12b e0bb ecd9 e73a
00000270: 9d61 0cb9 2181 e3ba 0750 483a 5e37 fd3a
00000280: b928 17ba 5428 2c3b 7453 db3a 0245 1a3b
00000290: c109 b1b9 9630 f8bc 3aea a6ba 3df0 96bb
000002a0: 03d8 22bb cc97 36ba a9cc 73bb 36d7 2fbb
000002b0: 3011 50b9 7e01 2fbb 0de3 c0ba 9ae3 d0ba
000002c0: 5b9c 3dbb 130e 62bb 382a deba 4fcc 04ba
000002d0: ea59 20bb 803b e03a 3861 15bb d0c2 9f3a
000002e0: 9cca a93a 6807 06ba 70b6 ffb9 f05d 023b
000002f0: 597f 79bb a102 adbb a80a 0a3b 81de d9bb
00000300: a08e fd3a 081d a63a 10da 2bbb c8bf 68bb
00000310: 8d5d 09bb a41d 003b f6f0 19bb 0a45 a5bb
00000320: 58d9 4fba 1ff3 a839 66bb 84bb 4b24 b439
00000330: 15bb 8eba b7ab 04bc 09a1 5ebb 1f46 15bb
00000340: be95 3a3b 650b 96bb 3e99 e1bc 3d5c 6abb
00000350: a8b2 f03a e463 943a a426 f5b9 0960 133b
00000360: c271 05ba 4bb7 f1ba 744b f43a 0023 063b
00000370: e87f d6b9 9017 7eba 0a9a adb9 c1e3 86bb
00000380: 8611 adba 20ad 94bb fc7b e5ba 8b4a ecb9
00000390: 08fc 90ba a60d 2fbb 4e21 9abc db68 c4bb
000003a0: c853 f439 00f1 da3a 2def f4b8 cb12 5ab9
000003b0: 282b 8c3a 66cc 00bb f48a f339 f82c 393a
000003c0: e7ad c0bb 55b8 9dbb d249 8fba 0d46 39bb
000003d0: d097 67bb afe4 10b9 79b6 68bb 22f9 0c3b
000003e0: 46aa 3f3b a41e fc3a 7013 b4bb 9d5c 4b3a
000003f0: 80d4 ab3a 5864 30bb 8218 73bb 2161 3938

fc3.bias f4 [28]
-0.06460888 0.030454842 0.007479928 0.03513523 0.03249495 -0.035540704 0.046231553 -0.025125688
0.007095855 -0.043931205 -0.048842262 0.016801393 0.058751766 -0.022100043 0.010207542 0.024014885
0.01576824 -0.048757363 0.030419212 -0.029821873 -0.02227788 -0.02804275 0.020064471 0.021410381
0.042590372 -0.003313862 -0.038870748 0.045400813
00000000: a951 84bd 6f7c f93c 2f1a f53b f5e9 0f3d
00000010: 6d19 053d 2193 11bd 4c5d 3d3d 63d4 cdbc
00000020: 5984 e83b 35f1 33bd d30e 48bd 13a3 893c
00000030: b1a5 703d 260b b5bc 893d 273c ddba c43c
00000040: 652c 813c cdb5 47bd b631 f93c 004d f4bc
00000050: 1a80 b6bc e9b9 e5bc 3f5e a43c d364 af3c
00000060: 3e73 2e3d 612d 59bb ef36 1fbd 34f6 393d
